proprietary/odm/firmware/film_model.tflite (tflite, 41472 bytes, 8 tensors)

sequential_1/relu0/Relu;sequential_1/bn0/FusedBatchNormV3;sequential_1/ftr0/BiasAdd/ReadVariableOp;sequential_1/ftr0/BiasAdd;sequential_1/ftr2/Conv2D;sequential_1/ftr0/Conv2D f4 [16]
0	0x3f040fb7	0.5158648
1	0xbcc2aab6	-0.023763042
2	0x3e238709	0.1596948
3	0x3f2d4f68	0.6769929
4	0xbe092968	-0.13394701
5	0x3dc2478c	0.09486303
6	0x3d607600	0.054800034
7	0x3ef710cc	0.48255002
8	0x3f9bd33d	1.217384
9	0x3ee789ce	0.45222324
10	0xbd2fd75b	-0.04292999
11	0x3e83f52b	0.25772986
12	0x3ee9aacb	0.45638117
13	0x3f4b0a4c	0.79312587
14	0xbd8ab610	-0.06773007
15	0x3e030225	0.12793787

sequential_1/relu1/Relu;sequential_1/bn1/FusedBatchNormV3;sequential_1/ftr1/BiasAdd/ReadVariableOp;sequential_1/ftr1/BiasAdd;sequential_1/ftr1/Conv2D f4 [32]
0	0x3fc3b004	1.5288091
1	0x3e8f68ab	0.28009543
2	0x3e9f0258	0.31056476
3	0x3d57957c	0.052632794
4	0x3f45dd57	0.7729086
5	0x3fa367e4	1.276608
6	0x3f68f425	0.90997535
7	0x3ffc6fd1	1.9721624
8	0xbf1d10a7	-0.61353534
9	0x3ec2e412	0.3806463
10	0x3f0b5194	0.54421353
11	0x3e6d1e53	0.23156099
12	0x3f32f964	0.6991179
13	0x3e214916	0.15750536
14	0x3e3facc6	0.18718252
15	0x40039ea6	2.0565581
16	0xbf4fa202	-0.8110658
17	0x3f0f126a	0.5588747
18	0xbe42e0d3	-0.19031076
19	0x3f8e8c0e	1.1136491
20	0xbe85fafe	-0.26168054
21	0x3f7cab84	0.9869921
22	0x3f1ca7a3	0.61193293
23	0x3f872680	1.0558624
24	0x3f3a0b44	0.7267344
25	0x3f46a0e1	0.7758923
26	0xbe3f5f2b	-0.18688647
27	0x3f904093	1.1269706
28	0x3f69c347	0.91313595
29	0x3fcd6204	1.6045537
30	0x3f0c558a	0.5481802
31	0xbf631b79	-0.88713795

sequential_1/activation/Relu;sequential_1/batch_normalization/FusedBatchNormV3;sequential_1/ftr2/BiasAdd/ReadVariableOp;sequential_1/ftr2/BiasAdd;sequential_1/ftr2/Conv2D f4 [16]
0	0xbe318bc1	-0.17338468
1	0x3feab910	1.8337727
2	0x40460d1c	3.0945501
3	0x400cbdb5	2.1990788
4	0xc08961c7	-4.2931857
5	0xc10b7d18	-8.71804
6	0x400c45db	2.1917636
7	0xbeccb2db	-0.39980206
8	0x4058ffca	3.3906121
9	0x3fb383d5	1.4024607
10	0xbfb133ba	-1.3843911
11	0x40c73a79	6.225888
12	0xbfdacb7e	-1.7093351
13	0x3fa8c05d	1.3183705
14	0x3f58659a	0.8453003
15	0x3f9d930a	1.2310498

sequential_1/ftr0/Conv2D f4 [16, 3, 3, 1]
0	0x3cb3337c	0.021875136
1	0xbd084b04	-0.033274665
2	0x3c4387f4	0.011934269
3	0x3aa94065	0.0012912868
4	0x3c1ad889	0.00945104
5	0xbc5d39b2	-0.013502525
6	0xbc0833a4	-0.008313093
7	0x3d10b8da	0.03533254
8	0xbd1c63f5	-0.038181264
9	0x3cb9814f	0.022644667
10	0xbc50f702	-0.012754204
11	0x3ba09cde	0.0049015125
12	0xbd015fad	-0.031585384
13	0x3cba6031	0.022750946
14	0xbba31c11	-0.004977711
15	0x3ceace60	0.02866286
16	0xbb0c8fc5	-0.0021447998
17	0xbc4d5c81	-0.012534262
18	0x3b809669	0.0039241803
19	0x3c5ed8a4	0.013601456
20	0x3b9d3b05	0.0047982954
21	0xbcf27059	-0.029594587
22	0x3c0b0589	0.008485206
23	0xbaaefac8	-0.0013349885
24	0xbcb878c6	-0.022518527
25	0x3c208183	0.009796503
26	0x3c252252	0.010078983
27	0xbced06f0	-0.028933972
28	0x3d064b83	0.032786857
29	0x3c14b388	0.009076007
30	0x3ad01742	0.0015876072
31	0xbd23dba1	-0.040004376
32	0xbd01b7b3	-0.03166933
33	0x3c9ffbfb	0.019529333
34	0xbb087109	-0.0020819327
35	0x3c45b728	0.012067594
36	0x3b7bc536	0.0038417107
37	0xbbe29cbb	-0.0069156564
38	0x3c4bc98c	0.012438189
39	0x3ba191b7	0.0049307006
40	0xbb3706ea	-0.0027927705
41	0x3c3b8c0e	0.011446966
42	0x3bf0e3ea	0.007351388
43	0xbc44a88f	-0.012003078
44	0xbad2577e	-0.0016047803
45	0xbc2e18c8	-0.0106260255
46	0x3caafb35	0.020871738
47	0xbc0e0323	-0.00866774
48	0x3ca3d5a4	0.019999333
49	0xbb793014	-0.0038023042
50	0xbbeea9ff	-0.0072834487
51	0xbb050bd8	-0.002030125
52	0xbb685d73	-0.003545609
53	0x3c7cdd4d	0.015433622
54	0x3bc9710b	0.006147509
55	0x3c405c66	0.0117407795
56	0xbbd0aef4	-0.0063685123
57	0xbd15de94	-0.03658922
58	0xbc066e03	-0.00820494
59	0x3c2d7e0c	0.010589134
60	0x3accdafa	0.0015629225
61	0xbcd50700	-0.026004314
62	0x3c01794e	0.007902456
63	0xbcbb10f3	-0.02283523
64	0xbd297469	-0.041370783
65	0x3c0e15cc	0.008672189
66	0x3cc85a58	0.024457142
67	0x3d267385	0.04063751
68	0xbc4048ee	-0.011736138
69	0xbceb1381	-0.028695824
70	0xbbc18e10	-0.0059068277
71	0x3bc074c2	0.0058732936
72	0xbb587a97	-0.0033032054
73	0x39c0d923	0.00036782873
74	0x3c3b1e86	0.011420852
75	0x3ce4d428	0.027933195
76	0xbd929fc6	-0.071593806
77	0x3c4e0c51	0.012576179
78	0xbcf67e28	-0.030089453
79	0x3d25218b	0.040315192
80	0xbc501c75	-0.012702097
81	0x3b00e8c9	0.001967
82	0x3b4e0832	0.003143799
83	0x3c1d36fa	0.009595627
84	0x3ab87860	0.001407396
85	0x3c0804c4	0.008301917
86	0x3c4e2a8b	0.012583385
87	0x3bd4025c	0.006470008
88	0xbd1c8f36	-0.038222514
89	0xbcfd23f1	-0.030900927
90	0x3bb34d07	0.005471829
91	0x3c07d646	0.008290833
92	0x3bdf11d5	0.0068075457
93	0xbbc46614	-0.005993614
94	0xbbfe0475	-0.007751996
95	0xbb0a1e38	-0.002107514
96	0x3c0c693d	0.008570013
97	0x3c32989c	0.010900643
98	0x3b79f6fc	0.00381416
99	0xbcf5fc13	-0.030027425
100	0xbc57aaba	-0.013163263
101	0xbc4f3526	-0.012646949
102	0xbc9ac629	-0.018893318
103	0x3c0bf5f3	0.008542526
104	0x3c4e9ac3	0.01261014
105	0x3c4c6777	0.01247584
106	0x3c019db3	0.007911134
107	0xbc3bb11d	-0.011455801
108	0x3b670b4a	0.0035254532
109	0xbcbd103b	-0.023079028
110	0x3c71df2e	0.014762683
111	0x3c0cb27a	0.008587474
112	0xbc89a896	-0.01680402
113	0xbc00daee	-0.007864697
114	0x3bd512dd	0.006502493
115	0xbd0a37d6	-0.033744656
116	0x3cce14f6	0.02515648
117	0x3c0cec7b	0.008601303
118	0xbbab917b	-0.0052358485
119	0x3c71dab8	0.014761619
120	0xbbd7d3b6	-0.006586517
121	0x3ca783f8	0.02044867
122	0xbd674f62	-0.05647219
123	0xbb77fa00	-0.003783822
124	0x3903abc5	0.00012557123
125	0x3b948367	0.004532266
126	0x3ae2608a	0.0017271203
127	0xbccd5026	-0.025062632
128	0x3c32f5ea	0.010922888
129	0x3aff85b6	0.0019494805
130	0x3c885a65	0.016644666
131	0xbb8a43d7	-0.004219513
132	0x3ab2abe1	0.0013631546
133	0x3c024135	0.007950117
134	0x3ba1af05	0.004934194
135	0x3b5dc8d0	0.0033841617
136	0xbc98f979	-0.018673645
137	0xbcb3d719	-0.021953152
138	0x3c8385fc	0.0160551
139	0xbcdc0fff	-0.026863096
140	0x3cbfd9ae	0.023419227
141	0x3c586c06	0.013209349
142	0xba656440	-0.0008750595
143	0xbb1919df	-0.0023361368

sequential_1/ftr1/Conv2D f4 [32, 3, 3, 16]
0	0x3e9d78dc	0.3075627
1	0xbe58ca89	-0.21171011
2	0xbd2fd7b9	-0.04293034
3	0x3db10482	0.08643438
4	0xbe34c50a	-0.1765329
5	0xbe7570cb	-0.23968808
6	0x3c9b5e77	0.018965943
7	0x3d217e8a	0.039427318
8	0x3dd0e01b	0.10198995
9	0x3c3cc144	0.0115206875
10	0xbd4db835	-0.0502245
11	0x3efad052	0.4898706
12	0x3d4ffc00	0.050777435
13	0xbcb8f986	-0.02257992
14	0xbe8d3ace	-0.27583927
15	0x3d860d71	0.065455325
16	0xbd3cee48	-0.04612568
17	0x3baa325f	0.005193993
18	0xbdcf8d14	-0.101343304
19	0x3d43038f	0.047610816
20	0xbe2f6a8a	-0.17130485
21	0xbb025b14	-0.0019890713
22	0x3e958c87	0.29208776
23	0xbb68deac	-0.0035533113
24	0x3da42808	0.08015448
25	0xbd29cd83	-0.041455757
26	0x3c59cb79	0.013293141
27	0x3e420276	0.18946251
28	0x3e1e5b8e	0.15464613
29	0xbdf16263	-0.11786344
30	0x3e160815	0.1465152
31	0x3e8fada3	0.28062162
32	0xbe89f6c0	-0.26946068
33	0x3e1ba424	0.15199333
34	0x3d049b58	0.03237471
35	0x3de268b9	0.110551305
36	0xbd94748d	-0.07248793
37	0xbe1a3917	-0.1506084
38	0x3da95b26	0.08269338
39	0x3e5552d2	0.20832375
40	0xbdebe1fe	-0.11517714
41	0x3c9dc1b4	0.019257404
42	0xbd553e83	-0.05206157
43	0x3e4c834d	0.19971962
44	0x3dea9249	0.11453683
45	0xbd404d68	-0.04694882
46	0xbe291900	-0.16513443
47	0xbcf8c3f3	-0.030366873
48	0xbe178e74	-0.14800435
49	0x3c6ded4f	0.014521911
50	0xbdc901a3	-0.09814765
51	0xbdc143dc	-0.09436771
52	0xbd89719a	-0.06711121
53	0xbd930526	-0.07178716
54	0xbe276410	-0.16346765
55	0xbd367d1f	-0.04455292
56	0x3db0974e	0.08622609
57	0xbe98e389	-0.29861096
58	0x3c6615e7	0.014043308
59	0xbd7d20cf	-0.061798867
60	0x3d842e9b	0.06454202
61	0xbd244a29	-0.040109787
62	0xbe31ed6c	-0.17375726
63	0xbd29ee31	-0.041486923
64	0xbabc4ecf	-0.0014366749
65	0xbc9a4bf5	-0.018835047
66	0xbe4088d3	-0.18802194
67	0xbdca05bd	-0.09864376
68	0x3dfd72bf	0.12375402
69	0x3c959edb	0.018264225
70	0xbe734a04	-0.23758703
71	0xbdb1b2f1	-0.086767085
72	0xbe62c5ae	-0.22145721
73	0xbe94c7e4	-0.29058754
74	0x3d4ba3e6	0.049716853
75	0x3e906af2	0.28206593
76	0xbdb7c270	-0.08972633
77	0x3d4d40bd	0.050110567
78	0xbd4afc0f	-0.049556788
79	0x3dc590a3	0.09646728
80	0x3d61726c	0.05504076
81	0x3e14321a	0.14472237
82	0xbdb6d140	-0.0892663
83	0x3dfae8c8	0.12251431
84	0xbe086607	-0.1332017
85	0xbe062b35	-0.1310242
86	0xbdad8e74	-0.084744364
87	0x3dc8d7ec	0.09806809
88	0x3d24591d	0.040124048
89	0xbe6b2ae6	-0.22965583
90	0x3d1ed350	0.038775742
91	0x3e3df8b0	0.18551898
92	0x3e2245e7	0.15846978
93	0x3d12614c	0.03573732
94	0xbd3cdc83	-0.046108734
95	0x3d29500a	0.041336097
96	0xbe0f6205	-0.14002235
97	0x3e057113	0.13031416
98	0xbd8bb94b	-0.06822451
99	0xbe729211	-0.23688532
100	0xbe20c5bf	-0.15700434
101	0xbdc488af	-0.09596383
102	0xbe001eba	-0.12511721
103	0xbb7fe91e	-0.003904886
104	0x3e1311fd	0.1436233
105	0xbd9c0d4d	-0.076197244
106	0xbbcffe04	-0.0063474197
107	0x3d22e9ab	0.039773624
108	0xbe8f3b72	-0.2797504
109	0xbe097488	-0.1342336
110	0xbaccd3b9	-0.0015627063
111	0x3d8e9ffb	0.069641076
112	0xbe15bb97	-0.14622341
113	0xbd0aa13e	-0.03384518
114	0x3cb0b265	0.02156944
115	0xbddd556c	-0.108073086
116	0x3d815d48	0.0631662
117	0xba2de3ce	-0.0006633372
118	0xbe90dea1	-0.28294852
119	0xbdbf8a5f	-0.09352564
120	0xb8968ce2	-7.178799e-05
121	0xbe0cc556	-0.13747153
122	0x3e02ccd4	0.12773448
123	0xbc796887	-0.015222675
124	0xbd903af6	-0.07042496
125	0xbe1797eb	-0.14804046
126	0xbcc7ace2	-0.02437443
127	0x3cceee68	0.025260165
128	0xbe390c3c	-0.18071073
129	0xbc143afa	-0.009047264
130	0xbe193d12	-0.14964703
131	0xbe782e5f	-0.24236439
132	0xbd8ffbff	-0.07030486
133	0xbe75f70e	-0.24020025
134	0xbe9ac6cc	-0.30229795
135	0xba495b68	-0.0007681162
136	0xbe774fb1	-0.24151494
137	0xbde6afbb	-0.11263987
138	0xbe58bc7d	-0.21165653
139	0xbe3480b0	-0.17627215
140	0xbde0e83f	-0.109817974
141	0x3d9456d6	0.07243125
142	0xbe9345e2	-0.28764254
143	0xbe0f8de6	-0.14018974
144	0xbcd436b7	-0.025904996
145	0x3d945b99	0.07244033
146	0x3e54b35e	0.20771548
147	0xbe9a1d43	-0.3010045
148	0xbdb8431b	-0.08997174
149	0xbd4a48b5	-0.049385745
150	0xbc8b921a	-0.01703744
151	0xbd9b8ef9	-0.07595629
152	0xbe6d2879	-0.2315997
153	0xbe8b745e	-0.2723722
154	0xbd3d06b1	-0.04614896
155	0x3c6b1bed	0.01434992
156	0xbe4d3be3	-0.20042376
157	0xbebc2895	-0.36749712
158	0xbe0bd56a	-0.1365563
159	0xbdc48b01	-0.095968254
160	0xbcd2e7f9	-0.025745379
161	0xbde4d653	-0.111736916
162	0xbebe391d	-0.3715295
163	0xbe850e64	-0.25987542
164	0x3e325ba6	0.17417774
165	0xbc0b3c1a	-0.008498216
166	0xbe557bee	-0.20848057
167	0xbca3e414	-0.020006217
168	0xbd9ace53	-0.075588845
169	0xbe196570	-0.14980102
170	0xbc5dbca0	-0.013533741
171	0xbdb956f4	-0.09049788
172	0xbdc68591	-0.096934445
173	0xbe913bc7	-0.2836592
174	0xbd93531c	-0.07193586
175	0xbe0952b1	-0.1341045
176	0xbe02e310	-0.1278193
177	0x3db9476b	0.09046825
178	0xbd5c38ac	-0.053764984
179	0xbe16c843	-0.14724831
180	0x3d985872	0.074387446
181	0x3daca422	0.08429743
182	0xbd4fecea	-0.05076305
183	0x3c51ab8f	0.01279725
184	0x3c9953a9	0.01871665
185	0xbe3ec6ac	-0.18630475
186	0x3ce6003e	0.028076287
187	0xbdac5b96	-0.08415906
188	0xbe5b15fd	-0.21395107
189	0xbddc1e1e	-0.10747932
190	0xbe0cf955	-0.13766988
191	0xbe603c19	-0.21897925
192	0x3e4561ac	0.1927554
193	0xbdfdde81	-0.12395955
194	0xbdc9e83b	-0.098587476
195	0x3d9cd873	0.07658472
196	0xbdba3514	-0.09092155
197	0x3ce38c8d	0.02777698
198	0xbc2e368a	-0.01063312
199	0x3d3c504c	0.045975015
200	0x3e05c450	0.13063169
201	0x3e3650ef	0.17804311
202	0xbdd3bc05	-0.10338596
203	0xbd865255	-0.06558672
204	0x3e1d0915	0.15335496
205	0x3d9944e8	0.07483846
206	0xbda59046	-0.080841586
207	0xbd88a37c	-0.06671807
208	0x3d2c8d34	0.04212685
209	0xbdd491d6	-0.103793785
210	0xbc26ed02	-0.010188343
211	0xbe006524	-0.12538582
212	0xbd7eeda9	-0.06223837
213	0xbe0f232c	-0.13978261
214	0x3dcd640e	0.100288495
215	0xbe845bc4	-0.25851262
216	0xbbb61288	-0.0055564083
217	0x3eaf94a5	0.34293094
218	0xbe1e03ea	-0.1543118
219	0xbdaa5617	-0.083172016
220	0xbe8f1929	-0.27948883
221	0x3c874b5a	0.016515423
222	0x3d158070	0.03649944
223	0xbe244b43	-0.16044335
224	0xbe0f131f	-0.13972138
225	0x3d33193a	0.04372523
226	0x3cbe90bd	0.023262376
227	0xbc31ebb6	-0.0108594205
228	0xbe2798fd	-0.16366954
229	0x3ce6336c	0.028100692
230	0xbd94cc3f	-0.07265519
231	0xbe1bae3e	-0.15203187
232	0x3d95b081	0.07309056
233	0xbc6cac6c	-0.014445405
234	0xbdd15438	-0.102211416
235	0xbde02585	-0.10944656
236	0x3b411391	0.0029461125
237	0x3ddaa2c1	0.10675574
238	0xbe15527d	-0.14582248
239	0xbe3606a3	-0.17775969
240	0x3d98276c	0.07429394
241	0x3c113d8c	0.008864772
242	0x3d674164	0.056458846
243	0x3dd9f919	0.10643215
244	0x3dc99401	0.09842683
245	0x3e210f51	0.15728499
246	0x3d510d29	0.05103794
247	0x3ceba8ff	0.028767107
248	0x3e3216ea	0.17391554
249	0x3dd5f8a5	0.10447816
250	0xbcbf9535	-0.023386577
251	0xbc410566	-0.011781072
252	0x3e2d1a54	0.16904575
253	0x3ea4a168	0.32154393
254	0xbcc38f7a	-0.023872126
255	0x3d38b93b	0.045098525

sequential_1/ftr2/Conv2D f4 [16, 3, 3, 32]
0	0x3f67a4f9	0.90486103
1	0xbe13a6d0	-0.14419103
2	0x3f33105d	0.69946843
3	0x3e918f8f	0.2842984
4	0xbf7af76b	-0.9803378
5	0x3d013da7	0.031552937
6	0x3f08a733	0.53380126
7	0x3ed789ed	0.42097417
8	0xbee0e8e6	-0.43927687
9	0x3fb294f0	1.3951702
10	0x402ea39e	2.7287364
11	0x3f3b25e4	0.7310469
12	0x40222509	2.5335104
13	0xbfd66797	-1.6750363
14	0x3f931503	1.1490787
15	0x3f3e299c	0.7428224
16	0x3eecbf7d	0.46239844
17	0x3fa366a5	1.27657
18	0x3fc3b19d	1.5288578
19	0xbf10e447	-0.56598324
20	0x3f0860d6	0.5327276
21	0xbf578a96	-0.8419584
22	0xbf9e2c2e	-1.2357233
23	0x3fe44d7b	1.7836145
24	0x3df7c822	0.12098719
25	0x3fa2ec10	1.272829
26	0xbf990fc9	-1.1957942
27	0xbe9c5c37	-0.30539104
28	0xbf221995	-0.63320285
29	0xbecfb265	-0.40565792
30	0x3fa3ac45	1.2786947
31	0x3fd4c536	1.6622684
32	0x3f30127b	0.687782
33	0x3daade68	0.08343202
34	0xbc9027f7	-0.017597182
35	0xbf8222de	-1.0166891
36	0x3f998b0c	1.1995559
37	0x3f43158a	0.7620474
38	0xbf150ac9	-0.5821958
39	0xbf58266c	-0.8443363
40	0xbf7190bd	-0.9436148
41	0x3f9cc5b9	1.224784
42	0xc017dd09	-2.372866
43	0xbe879829	-0.26483276
44	0xbfffcc55	-1.9984232
45	0x3faab917	1.3337735
46	0x401c05cd	2.437854
47	0x3f2b0172	0.6679908
48	0xbf860aae	-1.0472009
49	0xbea1b997	-0.31586906
50	0xbfc87144	-1.5659566
51	0x3f2a9771	0.6663733
52	0x3f163398	0.58672476
53	0x3e9a12e3	0.30092534
54	0xbe1dfaad	-0.15427656
55	0xbfb20b50	-1.3909702
56	0x3fb140b7	1.3847874
57	0x3f1f3b0d	0.6219948
58	0xbf3ebcc6	-0.74506795
59	0x3f29e17d	0.6635969
60	0xbfa657e4	-1.2995572
61	0xbe005ca8	-0.12535346
62	0x3e1c9c0e	0.15293905
63	0xbd6eb144	-0.058274522
64	0xbfc10d2f	-1.5082148
65	0xbf078f88	-0.52953386
66	0xbee00af6	-0.43758363
67	0xbbeb9540	-0.007189423
68	0xbe984e1a	-0.29747087
69	0x3fc8b46f	1.5680064
70	0xbf7b7ced	-0.98237497
71	0xbf8b4e10	-1.0883198
72	0x40164b13	2.3483322
73	0xbf41e44a	-0.75738966
74	0xbea5e315	-0.32399812
75	0xbeeae33e	-0.45876497
76	0x4035f28f	2.8429296
77	0x3f07a09d	0.5297945
78	0xc014c28d	-2.3243744
79	0x3ed3a99f	0.41340348
80	0x3f4c6cf2	0.7985374
81	0xbfa2985b	-1.2702745
82	0x3f133731	0.5750609
83	0x3fef8fd7	1.8715771
84	0xbdfcdafa	-0.12346454
85	0xbf272ec4	-0.65305734
86	0x3f7cffdd	0.98827916
87	0xc027d7eb	-2.6225536
88	0xbf0b76af	-0.5447797
89	0x3f58fe1b	0.84762734
90	0xbf8d2f08	-1.1029978
91	0x3fea7bf4	1.8319077
92	0xbf5e1aa4	-0.867594
93	0x3e8b47e6	0.27203292
94	0x3f5e0f9e	0.8674258
95	0xbf57d25d	-0.84305364
96	0x3fb5701c	1.4174838
97	0xbf521add	-0.8207224
98	0x3eee2432	0.4651199
99	0xbf0b4cb1	-0.54413897
100	0x3cdfffd2	0.027343664
101	0xbf5dbfd8	-0.86620855
102	0xbfde2407	-1.7354745
103	0x3ecd649a	0.40115815
104	0x3e1d5ab4	0.15366632
105	0x3f54ea7d	0.831703
106	0xbda9e523	-0.082956575
107	0x3f447664	0.7674315
108	0xbf75180b	-0.9573981
109	0xbfc07840	-1.5036697
110	0xbf530ae4	-0.8243849
111	0xbf9eafa7	-1.2397355
112	0x3f755cf8	0.95844984
113	0x3f6a58c9	0.91541725
114	0xbf427a82	-0.7596818
115	0x3f62fc97	0.8866667
116	0xbf8455d8	-1.0338697
117	0x3db83309	0.08994109
118	0xbe646efe	-0.22307965
119	0x3f22d91a	0.6361252
120	0xbe93a5a0	-0.288373
121	0x3fe478dd	1.7849385
122	0xbfc80e01	-1.5629274
123	0xbf73389c	-0.95008254
124	0xc008f026	-2.1396575
125	0x3fc3b975	1.5290972
126	0xbfa8841c	-1.3165317
127	0xbdc8ec6c	-0.09810719
128	0xbef0d07c	-0.4703406
129	0x3fe51f62	1.7900202
130	0x3e1f8698	0.15578687
131	0x3f910239	1.1328803
132	0x3f802a6b	1.0012945
133	0xbfec6507	-1.8468331
134	0xbf16ea47	-0.5895123
135	0x3c75d632	0.015004681
136	0xbf79901e	-0.9748553
137	0xbe98ff40	-0.2988224
138	0x3f02b8eb	0.5106341
139	0xbe48feb8	-0.19628417
140	0xbee8db4e	-0.45479816
141	0xbdb4eb8c	-0.088339895
142	0xbf5e36ca	-0.8680235
143	0xc04da4be	-3.21318
144	0xbffad578	-1.9596395
145	0xc00d10e6	-2.2041564
146	0x3fba85ed	1.4572121
147	0xbee661b7	-0.44996426
148	0x3d2ac6a1	0.041693334
149	0x3fd3ee17	1.6557034
150	0x3f889a9e	1.0672185
151	0x3ff3d88b	1.9050459
152	0x3e8d98c8	0.27655625
153	0x3df20914	0.11818138
154	0xbfb38b46	-1.4026878
155	0xbf2c7ad8	-0.67374945
156	0xbe27243d	-0.16322418
157	0xbf7f57ff	-0.99743646
158	0x3fb2941f	1.3951453
159	0x3efe2f9d	0.496457
160	0x402e56c7	2.7240465
161	0xbd83ec13	-0.06441512
162	0x3f50ba92	0.81534684
163	0x3eaa20ad	0.33228055
164	0x3fb86aef	1.4407634
165	0x3e9938be	0.29926103
166	0x3f951a72	1.1648695
167	0x3fa5a5db	1.294124
168	0x3f7943e5	0.97369224
169	0x3f6f5eee	0.93504226
170	0xbebcfac2	-0.36910063
171	0xbf3b3363	-0.73125285
172	0xc01a1227	-2.407358
173	0xc0081ede	-2.126884
174	0xbf097818	-0.53698874
175	0x3ebaf64c	0.36516035
176	0x3ef0a719	0.47002485
177	0x3f528353	0.82231635
178	0x3f5f473c	0.8721807
179	0xc0323347	-2.7843797
180	0x3c5ab13b	0.013347919
181	0xbe1feb8d	-0.15617199
182	0x3e52fdc2	0.20604613
183	0x3eb4a8ab	0.35284933
184	0xbfb5e8cd	-1.421167
185	0xbfbec6e2	-1.4904444
186	0x3f9b43cf	1.2130069
187	0xbe48d4a6	-0.19612369
188	0xbeeb3e2c	-0.4594587
189	0xbfaf9768	-1.371808
190	0xbe78a7d3	-0.2428277
191	0x3e7654ec	0.24055833
192	0x3e05b7b2	0.13058355
193	0x3ecc2715	0.39873567
194	0x3f820b08	1.0159616
195	0x3f0fb279	0.561317
196	0x3f6ddfe0	0.9291973
197	0xbfe52aab	-1.7903646
198	0xc02dadd6	-2.713735
199	0xbe041cf3	-0.12901668
200	0x3fea69c5	1.8313528
201	0xbfda92e9	-1.7076083
202	0x3e3e3bfe	0.18577573
203	0x4004575f	2.0678327
204	0xbe18bd40	-0.14915943
205	0xbf340e5e	-0.7033442
206	0x3eb48f6e	0.35265678
207	0x3ef8f84b	0.48626933
208	0xbf2bbb70	-0.6708288
209	0x404515f3	3.0794647
210	0xbeeecf5c	-0.46642578
211	0x3d353100	0.044236183
212	0xbece46dc	-0.40288436
213	0x3d5897d8	0.052879184
214	0x3cf52bf2	0.029928181
215	0x4007f9e7	2.1246278
216	0xbff38557	-1.9025067
217	0x3fb808c9	1.4377681
218	0x3dda1186	0.106478736
219	0xbdbcc24f	-0.09216749
220	0xc030460f	-2.754276
221	0x3f90e179	1.1318809
222	0xbbca2183	-0.0061685457
223	0xbe42b9d0	-0.19016194
224	0x3eff517a	0.4986685
225	0x3e4879a9	0.1957766
226	0xbfcf1cc7	-1.6180657
227	0xbdb6df91	-0.08929361
228	0x3fd3318a	1.6499493
229	0x3ef16a0b	0.47151217
230	0x3f330b8c	0.69939494
231	0x3f029df0	0.51022243
232	0x3f6e566e	0.9310063
233	0xbe867c48	-0.26266694
234	0xbe4568b9	-0.1927823
235	0xbe601cb7	-0.21885954
236	0xbe77f613	-0.24214964
237	0x3eccc6b9	0.39995363
238	0x3fc51d87	1.5399636
239	0x3d59bae5	0.053156752
240	0x3f576a51	0.841466
241	0xbf2667cf	-0.6500215
242	0x3f88c2a2	1.0684397
243	0x3ff47673	1.9098648
244	0x3fefddc0	1.8739548
245	0x3e950055	0.29101816
246	0x3ebe9a6e	0.37227196
247	0x3d4a0fc1	0.04933143
248	0x3ef6c0cc	0.48193967
249	0xbfcc7c7f	-1.5975493
250	0x3a23b5b5	0.0006245033
251	0xbf68b413	-0.9089977
252	0x3e847c17	0.25875923
253	0x3f7ba773	0.9830238
254	0x3e0a48b3	0.13504295
255	0xbe8e6855	-0.27813974

sequential_1/fc1/BiasAdd/ReadVariableOp f4 [3]
0	0x3cf5c488	0.03000094
1	0xbd91e61e	-0.071239695
2	0x3e2073f8	0.15669239

sequential_1/fc1/MatMul f4 [3, 16]
0	0x3e5ff8e4	0.21872288
1	0xbfeec3fc	-1.865356
2	0x3f36f14b	0.71461934
3	0x3f3e6363	0.743704
4	0x3fd4c3eb	1.662229
5	0x4042b023	3.0420005
6	0xc013faa9	-2.312174
7	0xbf9790c9	-1.184106
8	0xbfcb377d	-1.5876309
9	0xbed716c7	-0.42009565
10	0x3ff9a549	1.9503566
11	0xc0601313	-3.5011642
12	0xbf4da6c5	-0.80332595
13	0xbf0f1c99	-0.5590301
14	0xbfecb731	-1.8493406
15	0x3ec7857d	0.3896903
16	0xbf95528e	-1.1665819
17	0x3f74243c	0.9536779
18	0x3f534972	0.82533944
19	0xbfdb4088	-1.7129068
20	0xc00200c5	-2.031297
21	0xbec942bc	-0.39308727
22	0xbe51ef93	-0.20501547
23	0x3f89ae5b	1.0756334
24	0x3f632b12	0.88737595
25	0xbfba4d5c	-1.4554858
26	0x3f864c1e	1.0491979
27	0x3f46e6a1	0.7769566
28	0x3fdeb7ff	1.7399901
29	0x3fc1706a	1.5112431
30	0xbf698618	-0.91220236
31	0x3fc8037e	1.5626066
32	0x4002b5e8	2.0423527
33	0xbf5f23da	-0.8716408
34	0xbfebb54e	-1.8414705
35	0x3ffeca01	1.9905397
36	0x3fe221a9	1.7666522
37	0xbf5b5d46	-0.856892
38	0x3fbebfb6	1.4902256
39	0xbfbd5a3f	-1.4793166
40	0xbf8d4359	-1.1036178
41	0x3ff4a135	1.9111696
42	0xbfc4e433	-1.5382141
43	0x3d85c268	0.06531221
44	0xbf8a9f93	-1.0829948
45	0xbfc31123	-1.5239605
46	0x3fce8d1a	1.6136811
47	0xbfe068ea	-1.7532017
