proprietary/odm/firmware/glove_model.tflite (tflite, 10768 bytes, 8 tensors)

fc1/bias f4 [2]
000000 45 67 9d bd 3d 67 9d 3d
       -0.07685713 0.07685707

sequential/relu0/Relu;sequential/bn0/FusedBatchNormV3;ftr0/bias;sequential/ftr0/BiasAdd;sequential/ftr0/Conv2D f4 [8]
000000 8f 90 88 3f ec bf 04 bf 10 89 63 be f6 52 2a bf
       1.0669116 -0.5185535 -0.22220254 -0.6653284
000010 e8 af 2d bf 92 30 fb 3d 2c 22 46 3e 66 66 bf be
       -0.67846537 0.122651234 0.19348973 -0.3738281

sequential/relu1/Relu;sequential/bn1/FusedBatchNormV3;ftr1/bias;sequential/ftr1/BiasAdd;sequential/ftr1/Conv2D f4 [16]
000000 1a d4 92 3f c9 6f aa bf 0d 86 fa be 90 45 28 3e
       1.1470978 -1.3315364 -0.48930398 0.16432786
000010 ee 43 2c bf c5 bb ae be a6 04 96 3f 4d 97 3f 40
       -0.6729115 -0.34127632 1.1720169 2.9936097
000020 39 ff 90 bf f3 03 3c c0 f3 ba 6c 3f 5c 3a 85 3e
       -1.1327888 -2.937741 0.9247276 0.26021087
000030 cc 55 84 3f 8c 7a 25 bf b8 53 4e bf 5f fb 92 3f
       1.0338683 -0.64640117 -0.80596495 1.1482962

sequential/activation/Relu;sequential/batch_normalization/FusedBatchNormV3;ftr2/bias;sequential/ftr2/BiasAdd;sequential/ftr2/Conv2D f4 [32]
000000 f9 b0 cd c0 79 69 c0 c0 26 13 0c c0 ae fd a8 c0
       -6.427853 -6.012875 -2.1886687 -5.2809668
000010 c1 42 94 3f bc f6 a8 c0 6a a2 7b c0 0c e0 f0 bf
       1.1582872 -5.280119 -3.931788 -1.8818374
000020 a0 93 82 40 05 b0 c6 3f 06 1c 11 c0 49 f2 cc c0
       4.0805206 1.5522467 -2.2673354 -6.404576
000030 cc 15 0d bf 39 8a bd c0 4b f5 84 c0 f0 69 94 40
       -0.55111384 -5.923123 -4.154943 4.637932
000040 12 9f a5 c0 c4 27 14 c1 3c 16 ee be d2 f2 90 c0
       -5.175668 -9.259708 -0.46501338 -4.529641
000050 f4 42 11 bf 24 04 03 c0 92 35 31 c1 5a e6 9a c0
       -0.5674279 -2.0471277 -11.075579 -4.840619
000060 90 42 25 3e e8 0f d3 c0 54 53 74 bf 26 fa 65 c0
       0.16138673 -6.5956917 -0.9543965 -3.5933928
000070 59 46 e9 c0 96 90 c7 c0 6a 74 6a bf 1e 5a 82 c0
       -7.2898374 -6.2363997 -0.91583884 -4.0735006

sequential/fc1/MatMul f4 [2, 32]
000000 04 a8 aa bf 70 39 f5 bf 27 07 c3 3f ff bd 6e 3f
       -1.3332524 -1.9158154 1.5236558 0.9325866
000010 92 be 40 3f c3 df 86 bf a5 81 91 bf 6c 93 ac 3f
       0.7529079 -1.0537037 -1.1367689 1.348249
000020 68 e0 9e 3f 7b c7 78 3f 02 8e ce bf 41 30 a6 3f
       1.2412233 0.97179383 -1.6137087 1.2983476
000030 87 b1 80 3f 7c eb cd bf be c7 89 bf 1b 74 53 3f
       1.0054177 -1.6087489 -1.0764081 0.8259904
000040 ef 67 f1 bf 8d 60 2b c0 4f ab d6 bf 36 22 b5 bf
       -1.8859843 -2.677768 -1.6771029 -1.4151065
000050 bc 31 ca 3f 71 82 a0 bf 67 c0 29 c0 d4 d9 79 3f
       1.5796428 -1.2539808 -2.6523683 0.97598004
000060 db 1c 7b 3f fe 7c d7 bf f4 53 bd 3f fa d7 9c 3f
       0.98090905 -1.683502 1.4791245 1.2253411
000070 2a f2 a4 bf 41 be ac bf 18 93 9f 3f ca 4a 8b 3f
       -1.2886403 -1.3495561 1.2466764 1.0882199
000080 9b b1 f1 3f f6 74 cf 3f a4 8a 9b bf 02 75 58 bf
       1.8882326 1.6207569 -1.2151685 -0.8455354
000090 dd 1e af bf c5 3f bb 3f ae cb eb 3f f1 68 8e bf
       -1.3681294 1.4628836 1.8421533 -1.1125776
0000a0 70 9d 66 bf 75 90 b6 bf 4a a7 ae 3f 14 bd a3 bf
       -0.9008398 -1.4262835 1.3644803 -1.2792077
0000b0 25 cc 79 bf 35 cb d2 3f 02 5e d1 3f b8 09 9d bf
       -0.97577125 1.6468264 1.6356814 -1.2268591
0000c0 83 b6 e2 3f f5 fc 25 40 5d 40 c5 3f b0 b4 a1 3f
       1.7711948 2.5935643 1.5410267 1.2633266
0000d0 9d e9 c9 bf 54 e2 db 3f 18 2d 27 40 fa b7 79 bf
       -1.5774418 1.7178445 2.6121273 -0.9754635
0000e0 1e 28 5d bf f0 57 f1 3f a1 17 30 bf 33 98 2e bf
       -0.8638934 1.8854961 -0.68786055 -0.6820099
0000f0 75 48 e2 3f 40 96 c2 3f 8d 32 52 bf c3 85 70 bf
       1.7678362 1.5202103 -0.82108384 -0.93954104

sequential/ftr0/Conv2D f4 [8, 3, 3, 1]
000000 39 e7 c8 bb 9f fe c8 bb 5f 1b f8 ba 1c 87 03 bc
       -0.0061310795 -0.006133869 -0.0018929056 -0.008027818
000010 2b 40 be ba be d6 f9 3a 15 c2 27 bc c1 f7 78 3b
       -0.0014514973 0.001906119 -0.010239144 0.003798947
000020 f4 cf 29 3b c0 9b 0c 3b 81 90 64 bb 12 36 5e 3c
       0.0025911303 0.002145514 -0.003487617 0.013562696
000030 05 5c e8 bb 11 ea 51 3a 08 36 a4 3b 0e 18 67 3c
       -0.0070910477 0.0008007596 0.005011324 0.014104856
000040 db c6 b4 bb 85 58 12 bb 9b 56 7d 3a 7e a4 b3 bb
       -0.0055168695 -0.0022330594 0.00096640893 -0.0054822555
000050 5a f9 06 3c 0d 19 29 bc 1d 67 3b bc c5 3d ea ba
       0.008238161 -0.010320914 -0.011438158 -0.0017871192
000060 d8 05 60 3c 47 be bf ba 6d 22 d9 3b a5 ad 4d bb
       0.013673268 -0.0014628851 0.0066264183 -0.0031384018
000070 9e 27 4c bc 8d 09 2c 3c 22 96 ab ba 9a 9e 3a 3a
       -0.012460617 0.010500324 -0.0013091008 0.00071189704
000080 02 88 1c bc 8d 15 88 3a cf 2c 41 3c 3a ba 5d 3b
       -0.009553911 0.0010382399 0.011790468 0.0033832924
000090 b9 df 61 3b e6 37 23 3c 66 0e 5a 3b c1 f8 c4 bb
       0.0034465624 0.009962058 0.0033272742 -0.006011099
0000a0 15 9c 10 bb ed fc f5 ba 8c 3b 01 bc 75 f5 54 bb
       -0.0022065688 -0.0018767394 -0.007887732 -0.0032494937
0000b0 05 9e 2a 3c 14 d4 5b bc 10 b2 30 3c ba 0e 13 bc
       0.010413651 -0.013417263 0.010784641 -0.008975679
0000c0 7c 2f 8b bc 7d ad 86 bb 83 55 1a 3c 16 48 1f bb
       -0.016990416 -0.004110037 0.009419802 -0.0024304441
0000d0 c5 e7 e5 3b ea 75 24 bc fe dd 37 bc 30 67 c0 bb
       0.0070161545 -0.0100378785 -0.011222361 -0.005871676
0000e0 88 12 e2 3b 03 e1 ee bb 54 8f 6a 3c 4c 07 c6 3b
       0.0068991818 -0.007290007 0.014316399 0.0060433503
0000f0 40 ce 90 bb 39 71 13 bb a1 6c 2a bc 1e 42 09 3c
       -0.004419118 -0.0022497906 -0.010401876 0.00837758
000100 d0 df 04 bc 8b d0 59 39 00 c3 b9 3b b6 a8 d0 ba
       -0.008110002 0.00020772421 0.0056689978 -0.001591942
000110 10 55 68 bb 1a 74 45 3c 25 f5 1d bb d8 45 1b bb
       -0.0035451092 0.012051607 -0.0024102416 -0.0023692753

sequential/ftr1/Conv2D i1 [16, 3, 3, 8]
000000 26 c1 1c ee a3 ee 02 b1 05 bf 1d e2 aa ed eb 28
       38 -63 28 -18 -93 -18 2 -79 5 -65 29 -30 -86 -19 -21 40
000010 0d a6 25 1f 9b 03 f7 f7 c7 c2 26 81 bf 06 40 b1
       13 -90 37 31 -101 3 -9 -9 -57 -62 38 -127 -65 6 64 -79
000020 b8 d4 42 f1 f2 20 3d d5 a7 ab 4b f5 8a 2d 17 0c
       -72 -44 66 -15 -14 32 61 -43 -89 -85 75 -11 -118 45 23 12
000030 27 26 d0 ec ee f8 e4 9d ae f8 13 bf f2 3f 1c 9d
       39 38 -48 -20 -18 -8 -28 -99 -82 -8 19 -65 -14 63 28 -99
000040 e9 d5 06 db e6 22 1f 16 27 14 f7 f8 f3 d1 06 fb
       -23 -43 6 -37 -26 34 31 22 39 20 -9 -8 -13 -47 6 -5
000050 3f f7 12 f0 28 a8 fd 15 e2 f6 fd 0f 19 f0 f8 1d
       63 -9 18 -16 40 -88 -3 21 -30 -10 -3 15 25 -16 -8 29
000060 36 f1 0b f1 14 eb 1a 13 34 de 10 f1 0e 81 1c 15
       54 -15 11 -15 20 -21 26 19 52 -34 16 -15 14 -127 28 21
000070 fd d3 1f fc 1b c9 02 12 05 e6 27 cf 0b d9 15 fc
       -3 -45 31 -4 27 -55 2 18 5 -26 39 -49 11 -39 21 -4
000080 05 d4 0e 0a 07 cb 15 fd e9 ee ec f6 12 e1 18 0d
       5 -44 14 10 7 -53 21 -3 -23 -18 -20 -10 18 -31 24 13
000090 15 d5 05 e4 ea 06 fa fc ee d5 05 1a d5 05 22 ff
       21 -43 5 -28 -22 6 -6 -4 -18 -43 5 26 -43 5 34 -1
0000a0 7f a0 c7 0b cc 1f ed c0 f7 fd e9 28 ff 00 f1 f9
       127 -96 -57 11 -52 31 -19 -64 -9 -3 -23 40 -1 0 -15 -7
0000b0 c1 ff a3 ef ce 32 30 0f 1c f9 f2 ac 9b 2c 04 ba
       -63 -1 -93 -17 -50 50 48 15 28 -7 -14 -84 -101 44 4 -70
0000c0 13 3c 09 61 e8 ce cb ec f4 5d d9 88 2c 17 00 28
       19 60 9 97 -24 -50 -53 -20 -12 93 -39 -120 44 23 0 40
0000d0 23 27 d7 17 01 ce 25 1d 18 ee 1f ee 09 11 0c 2c
       35 39 -41 23 1 -50 37 29 24 -18 31 -18 9 17 12 44
0000e0 d7 01 dc 15 1c 18 41 01 81 28 1f 43 4e fc f0 fa
       -41 1 -36 21 28 24 65 1 -127 40 31 67 78 -4 -16 -6
0000f0 2f 04 37 05 48 07 c0 35 e9 e5 37 00 18 c6 02 f2
       47 4 55 5 72 7 -64 53 -23 -27 55 0 24 -58 2 -14

sequential/ftr2/Conv2D i1 [32, 3, 3, 16]
000000 5d 3b 21 44 33 f4 26 c1 36 d9 61 21 28 18 27 00
       93 59 33 68 51 -12 38 -63 54 -39 97 33 40 24 39 0
000010 4e 11 40 ef 41 15 e6 d3 0c f8 f1 df 10 a8 23 36
       78 17 64 -17 65 21 -26 -45 12 -8 -15 -33 16 -88 35 54
000020 3b 3e d6 34 33 4a 34 5b 27 e5 02 2c 49 5a f9 db
       59 62 -42 52 51 74 52 91 39 -27 2 44 73 90 -7 -37
000030 e4 27 65 2b fd c5 50 d9 d8 ff 2a f3 eb 13 35 0b
       -28 39 101 43 -3 -59 80 -39 -40 -1 42 -13 -21 19 53 11
000040 bf 11 fc cc 00 da fa 11 e8 0d de e3 fd 54 f9 0b
       -65 17 -4 -52 0 -38 -6 17 -24 13 -34 -29 -3 84 -7 11
000050 d2 13 0b f4 34 22 bb fc 81 e5 d5 0c 15 0b ec af
       -46 19 11 -12 52 34 -69 -4 -127 -27 -43 12 21 11 -20 -81
000060 65 35 08 32 15 db fe 39 f2 47 66 24 0a e9 23 29
       101 53 8 50 21 -37 -2 57 -14 71 102 36 10 -23 35 41
000070 0e cf 14 07 2e ca 31 ef e1 f1 f0 3b d8 36 43 26
       14 -49 20 7 46 -54 49 -17 -31 -15 -16 59 -40 54 67 38
000080 f3 49 37 0c 54 07 11 21 dd 1a 25 52 16 04 59 28
       -13 73 55 12 84 7 17 33 -35 26 37 82 22 4 89 40
000090 b8 e2 d8 2d 1c 12 e8 9f 50 ca 4c f8 58 e9 f7 02
       -72 -30 -40 45 28 18 -24 -97 80 -54 76 -8 88 -23 -9 2
0000a0 f5 e9 19 0e ef 0d 06 d5 ef e7 12 43 d5 31 17 d3
       -11 -23 25 14 -17 13 6 -43 -17 -25 18 67 -43 49 23 -45
0000b0 0a 2c 24 0e fc 1a 1d 01 47 e2 32 2f 03 44 19 f1
       10 44 36 14 -4 26 29 1 71 -30 50 47 3 68 25 -15
0000c0 30 45 45 0d f7 31 2f 96 dd dc 36 23 24 56 13 f1
       48 69 69 13 -9 49 47 -106 -35 -36 54 35 36 86 19 -15
0000d0 04 e7 db 0a fb f7 14 cb ec 27 e2 c6 2c f1 be 27
       4 -25 -37 10 -5 -9 20 -53 -20 39 -30 -58 44 -15 -66 39
0000e0 13 bf cf ef 79 2f 6a 01 1b f8 21 41 31 22 f5 e3
       19 -65 -49 -17 121 47 106 1 27 -8 33 65 49 34 -11 -29
0000f0 31 58 1f 54 21 c5 bc 07 f3 78 36 74 f6 2b 2d 19
       49 88 31 84 33 -59 -68 7 -13 120 54 116 -10 43 45 25
