proprietary/odm/firmware/water_check.tflite (tflite, 12200 bytes, 19 tensors)

Const_16 f4 [16]
00000000: 9a28 12be 78d1 6b3d 1a3d c43d b6c4 3e3d
00000010: e4f4 1e3e 4f90 253e 3ad7 b3bd 454c 21be
00000020: 1826 be3d 44ed 80bd dc46 0a3e 7f9c 37be
00000030: 9540 02be 2868 093e e1e1 12bd 73a8 ac3d
-0.14273301 0.05757281 0.09581967 0.046574317 0.15523106 0.1616833 -0.087812856 -0.15751751
0.092846096 -0.06295255 0.13503593 -0.17930792 -0.12719949 0.13418639 -0.035859946 0.08430567

Const_12 f4 [16]
00000000: 2374 5d3e b269 c33e 2d57 61be 626e 75be
00000010: 0af5 90be 7088 c53c 62ce cf3d 5f00 443f
00000020: 78e4 c53e 6f9a 043e a17b e03d 5a1c 643f
00000030: d643 06be 31dc e13f 46b2 8c3d 3082 13be
0.21626334 0.38166577 -0.22005911 -0.23967889 -0.2831195 0.02411291 0.10146786 0.76563066
0.3865087 0.12949537 0.1096108 0.8910576 -0.13111815 1.7645322 0.068699405 -0.14405131

Const_8 f4 [16]
00000000: 43cf 733f 0486 96be 3671 90be 5a26 1cbf
00000010: 4559 063e 3cff f83e 63c2 d7be b29a 083e
00000020: d036 9f3e 82d3 053f 0540 2a3f 2dd2 09be
00000030: dad1 56bf 407b 22be 1d13 62c0 bec1 2d3f
0.9523813 -0.2939912 -0.28211373 -0.6099602 0.13119991 0.48632228 -0.42140493 0.13340262
0.31096506 0.5227586 0.66503936 -0.13459082 -0.8391396 -0.15867329 -3.5324166 0.6787375

Const_4 f4 [16]
00000000: 8102 3b3f cac4 8bbe cd2d d73e b880 063e
00000010: 067c 923e d833 efbe 3549 c1be 6022 683f
00000020: 1915 0740 13dd e53e 82d3 063f 5dcc 973e
00000030: d8f3 eabd d20e c93d 5679 ad3e b88f 8e3f
0.73050696 -0.27298576 0.4202713 0.1313504 0.28610247 -0.4671924 -0.37751165 0.9067745
2.1106627 0.4489523 0.52666485 0.29648104 -0.11472291 0.0981728 0.33881634 1.113761

Const f4 [3]
00000000: dae8 adbf ccc5 21c0 26ed ab3f
-1.3586686 -2.5276976 1.3431747

Const_14 f4 [16]
00000000: 7b5e ffbd 53fa 0d3e ab11 a9be e7d4 9f3e
00000010: cf65 283c dbf6 623e ee99 97be dcbf d83d
00000020: d6bc 06bd 5302 413d 365e 1d3e ec54 a9bb
00000030: 6e5b 05be a52c 563e 4ad7 8fbc 3610 2bbd
-0.124691926 0.13865022 -0.33021292 0.3121712 0.010278179 0.2216448 -0.29609627 0.10583469
-0.03289493 0.047121357 0.1536797 -0.005167594 -0.13023159 0.20915468 -0.017558713 -0.041763507

Const_10 f4 [16]
00000000: 348a 873e 2073 823d da22 903d adef 9f3e
00000010: 306f 723e f5da 8dbd ee21 113d 33ea c6bd
00000020: 7d4a 61be 41c8 23be a0c1 953d 09ac 9d3e
00000030: 0e59 ebbd cc5c b5bd f025 8abe 854c 85be
0.26472628 0.063696146 0.070378974 0.31237546 0.23675227 -0.06926528 0.03543275 -0.09712639
-0.22001071 -0.1599436 0.07312322 0.30795315 -0.11491595 -0.0885559 -0.2698207 -0.26034942

Const_6 f4 [16]
00000000: 0a11 373d f1e3 e6bc 096f 8d3c 1c91 71be
00000010: 0db7 9abe e5f8 14bc b30f dc3d e3dd 353e
00000020: 5646 5a3e 770e 473c ea05 43be f583 1fbe
00000030: 6003 833e cdc8 6c3d cd70 20be c9c6 88be
0.044693984 -0.028184863 0.01726486 -0.23590511 -0.30217782 -0.009092544 0.10745182 0.17760424
0.21315894 0.012149445 -0.19045225 -0.15577681 0.25588512 0.057808686 -0.1566803 -0.2671416

Const_2 f4 [16]
00000000: 0e98 fd3d aede 1abe 9e84 a0be c0be 983d
00000010: aadd a03d 706c 3dbe 8819 2f3e ceec a1be
00000020: eedb cbbd dc20 92bd 0b68 fa3d a35e 64be
00000030: d5ce b23c 5815 ec3d c850 8d3d b038 7d3e
0.12382518 -0.15124008 -0.3135118 0.07458258 0.07854779 -0.18498397 0.17099583 -0.3162598
-0.09954058 -0.07135174 0.12226876 -0.22301726 0.02182714 0.115275085 0.069001734 0.24728656

convolution f4 [1, 3, 3, 1]
00000000: 7aac b1be 4dfd ca3c df04 4e3e 1074 8bbe
00000010: cef7 15be ba64 25be 7113 efbd a06e 963d
00000020: 8412 34be
-0.34701902 0.024778986 0.20119046 -0.27236986 -0.14645311 -0.16151705 -0.1167363 0.07345319
-0.17585188

convolution_1 f4 [16, 1, 1, 1]
00000000: 3481 8cbc 751e 8d3c 84aa 8d3c 6bf6 8d3c
00000010: 163d 8b3c 3af4 8c3c 8c99 8dbc 7420 8fbc
00000020: af8e 8a3c 1fd4 8ebc 2d3d 8a3c e284 8bbc
00000030: 3a5a 8fbc 5194 8b3c 2810 90bc 099b 893c
-0.017151453 0.017226437 0.017293222 0.017329415 0.016996901 0.0172063 -0.01728513 -0.01747153
0.01691374 -0.017435132 0.016874874 -0.017031137 -0.017499078 0.017038496 -0.017585829 0.01679756

depthwise f4 [1, 3, 3, 16]
00000000: 208a 49bd 1993 84be 511f 95be 8e31 713e
00000010: 19dc 883e e240 80bc 362e f7bd d3a4 0e3d
00000020: 7494 9fbd e078 3ebe c39b 92bd 34c9 073e
00000030: 3528 0e3e 4a48 6dbe 8c6d 9e3d bd88 babc
00000040: 02ba 46ba 8347 823e 8409 91be 76f0 2abe
00000050: acad 88be b585 aebd 6069 99be 9e8a e93d
00000060: 96a3 62be 9f6f e93d 5aa9 513e 70cc 133e
00000070: 8bd4 b1be dad6 033e 9214 533e 35f8 833e
00000080: 211f 933e 389a 31be 7dcc a33d 8084 a53e
00000090: fb65 4abe 3b6d 4c3e 6ab8 f2bc b2cf 623e
000000a0: 7977 a43e d920 8d3e 5ba2 9cbd 0283 bcbd
000000b0: 84e6 253e 4495 953e 8ec5 a2be c3f8 d93d
000000c0: 5e61 193e c794 003e 4ad3 91be 208a 753e
000000d0: 33c0 393e b852 d0bd 0ce6 60be be46 b2bd
000000e0: 7603 6d3d 9cbb 51bd 785d 9e3e f4de 9ebe
000000f0: dc8c 6abd 0de8 30be 6ffa 72be e3dc a23e
00000100: 7547 1d3e afa6 083e 50cc eebd 9f01 243e
00000110: ffdd 16be 0edd e1bd a42f 7bbe 3e3e 1cbe
00000120: f042 b1bd a8fa 22bd 8987 71be 1177 fbbd
00000130: 1070 823e 3463 653e cc9f f7bc 4d08 c43d
00000140: a3a3 673e 9c7e 29bd 49c6 04be 69b0 91be
00000150: c10c bb3d 6741 5d3e f369 843e b6b1 133e
00000160: e81f 7ebe d80f 3d3e 2046 83be dd45 8dbe
00000170: 7fba 50be 2e47 7bbe 691f fd3d 5fbe 76be
00000180: b081 f4bb 00da 50be 6f8f 81be 06d5 993e
00000190: c222 2d3c 1a49 3ebe 2230 e6bd 8456 80bd
000001a0: 7a1c 923e 3ae0 64bc ad2a 9c3e eda3 89be
000001b0: a7bb 2f3e 6ac9 533e 645c 08be c433 4cbe
000001c0: 5424 713e f296 08bd d0d4 a2be 40a8 573e
000001d0: 3587 783e 78b1 84be d6ab 123b 01d1 3ebd
000001e0: 8b8c 92be 933c 6bbe af19 e13d ef3f 783e
000001f0: c303 4abe 7da7 a03c 51d3 513a 3e2f 453e
00000200: c2cf 7c3e 627e 7ebe a263 23be 9a78 7a3e
00000210: 64a1 b53e 887e babd 9b48 edbb b4c9 b03d
00000220: f83b 10be 9ad3 9b3d 9865 5bbd f4e8 62be
00000230: 669e e23d cc67 1fbe 55f1 4e3e a108 5dbe
-0.049203992 -0.25893477 -0.29125455 0.2355406 0.2673042 -0.015655939 -0.12069361 0.034825157
-0.07791987 -0.18600798 -0.071586154 0.13260347 0.13882525 -0.23172107 0.07735738 -0.02277028
-0.0007580818 0.25445184 -0.28327572 -0.16693291 -0.26695 -0.08521596 -0.29963207 0.11403392
-0.22132716 0.11398243 0.20474759 0.14433455 -0.3473247 0.12874928 0.20613316 0.25775304
0.28734687 -0.17343986 0.079979874 0.32327652 -0.19765465 0.19963543 -0.029628951 0.22149542
0.321224 0.27564123 -0.07648154 -0.09204675 0.16201216 0.29215443 -0.31791347 0.10643151
0.14978549 0.12556754 -0.28481513 0.23978472 0.18139724 -0.10172027 -0.21962756 -0.08704899
0.05786463 -0.05120431 0.30930686 -0.31029475 -0.05726324 -0.1727602 -0.23728345 0.31809148
0.1535929 0.13344835 -0.11660063 0.16016243 -0.14733122 -0.11028491 -0.24529892 -0.15258119
-0.086553454 -0.039789826 -0.23586859 -0.122785695 0.25476122 0.22401124 -0.030227564 0.09571896
0.22621016 -0.04138051 -0.12966265 -0.28454903 0.09133292 0.2160698 0.25862083 0.1442326
-0.24816859 0.18463075 -0.2563944 -0.27592364 -0.20383643 -0.24538872 0.12359507 -0.24096058
-0.007461749 -0.2039566 -0.25304744 0.30045336 0.010567369 -0.18582574 -0.11239649 -0.062665015
0.2853735 -0.013969475 0.3050131 -0.26882878 0.17161427 0.20682302 -0.13316494 -0.19941622
0.23549014 -0.033347078 -0.31802988 0.21060276 0.24270327 -0.25916648 0.0022380254 -0.04658604
-0.2862285 -0.22972326 0.10991227 0.24243139 -0.19727997 0.019611115 0.0008004206 0.19256303
0.24688628 -0.24852899 -0.15955976 0.24460068 0.35474694 -0.09106165 -0.0072413213 0.08632222
-0.14085376 0.07608719 -0.053563684 -0.22159177 0.11065368 -0.15566939 0.20209248 -0.21585323

convolution_2 f4 [16, 1, 1, 16]
00000000: 4cdf a6be a11a 283e f766 f43d 946a e3be
00000010: f2c6 933e 54b1 a23e 7c6e 11bd 4361 02bd
00000020: 2413 83be af9d 7a3e ef10 e1bc af09 b03e
00000030: b1cb 3fbe 1656 a83d 9a26 d5be 01ad 783e
00000040: 0fe8 bfbe 62a2 92be 4f6a 52bf c4e7 67bf
00000050: f4d8 fcbe b9a8 01bf 3803 563f e1c0 203e
00000060: 3f6e 6f3f 1e1a d9be e68c 923f ec79 5dbf
00000070: da57 11bf 25c2 2bbf cba6 1d3f f8b1 8dbf
00000080: ebb2 8ebd f774 e83c 824a 03bf 581a 2d3f
00000090: 5ef9 9a3f ec5b 06bf 89ec 9fbd 961c 2a3f
000000a0: f9a5 95be c484 be3e 6f2a c2bf 1c23 ba3e
000000b0: 4c2b 8a3b 6768 42bf c6e9 cc3f 0e4f 78bf
000000c0: 6fc7 9a3e d2e3 00bd 7e5c 81be 2504 86be
000000d0: af8e d5be 8a76 fd3d b6f4 75be 0aab f2bd
000000e0: 8bd6 863e 9060 803e 82f3 e73e bc40 c2bd
000000f0: eeab d03c d474 233e b5f1 df3d e4f7 bfbe
00000100: 31ad e83e 0ed3 4e3e 5cf5 bcbe f8af 7a3c
00000110: 7029 36be 58a7 063e 496b 88bd fb7d 94bb
00000120: 4e23 fabd 28ee 983e 63d8 bcbe ba73 613d
00000130: e158 89be 9dbf f53d fed8 9d3e c52e 2f3d
00000140: 69c5 ee3e 1e8a 41bf bca6 213e 0049 013f
00000150: d9dc 313d f39f f8be 47ad 83bd 3714 efbe
00000160: 0887 c83e 9067 083f 165c 733e 464a 603c
00000170: 675a ddbe 541c 0dbf 98f4 753f ca34 0a3f
00000180: 93dc 063f f546 de3d b76e 27bd cda6 30be
00000190: 1047 2dbd 33e5 803e abbb 1f3e 5e36 643e
000001a0: 8be4 babe 2627 72be 51e1 0ebd 98bb 95bd
000001b0: 55c1 393d 2f56 d1bd 983d a23d 003d 23be
000001c0: 7efc dfbe a3a9 2ebf 77a2 0c3f 54a6 21bf
000001d0: e76d efbe abf6 b93e a588 fcbe 03ba 813d
000001e0: cf10 813e 15f3 993e db9a df3d c765 f53e
000001f0: 2d1b 2f3e 5b85 04bf b138 e7be cecb 3bbd
00000200: a6af cabd 237f 17bf 4c09 07bf c87d bf3d
00000210: 21c4 bfbd efa4 c6be 52b6 393f 32f7 1ebf
00000220: c36d 173f 522a 4e3e fc8c 69bf 4137 b6be
00000230: 76a3 653b cf2b 1b3e c6e9 f43e a0f3 9d3e
00000240: 9af1 66be f50d 24be 0241 eebc 0c1e 443e
00000250: a547 413d 1b17 09be 11e9 ed3d 9713 44be
00000260: 5ae1 4fbe ff7a 8dbe 84fc b33c b40f 863e
00000270: a4fa a4bd 0442 c0bd e2e3 41bd 37bd d53d
00000280: dd74 95bf 9108 d9be 5698 9f3f f55c 043f
00000290: 9e78 803f b3ca 5c3f c108 f3be d3a4 403d
000002a0: b5a9 b2be 95ee b33f 2470 d43d 8505 fabe
000002b0: c69a bc3e 1003 53bd 3d2e d43e 5963 9a3f
000002c0: 86fa 59be d6ca 273f 0eeb 023f 256e 7fbf
000002d0: 0887 ee3d b698 0fbf fc77 593f 5fd6 f0be
000002e0: 735d f3be 0833 c03e 8a63 68bf 0f34 3fbf
000002f0: 4043 bdbe d272 523f 0f49 d1be 5460 b0bd
00000300: 246d 563c fc5e 023f faeb 0e3f da1f 693e
00000310: 2253 a53e c66f 0f3f 2d27 60bf 8bc5 e33e
00000320: 7258 ea3c e1f9 143f e316 18bf f7c8 083f
00000330: b018 323f cc08 dfbd 38f2 2fbf d7a5 99be
00000340: 7dd1 213f c901 9dbf 5358 b23e 3cf0 873e
00000350: c617 eebf 3ee5 9fbf 4ae7 823f 0996 b83e
00000360: 272b 963f d5e0 11be 8043 e53e 3ccf 4c3f
00000370: d5f6 1040 1665 b0bf 1226 993e 7afe 25bf
00000380: df4d cebe 94bc aabe a055 bcbe a76b 9ebd
00000390: 3ab1 273f a43f 103f b726 713f 0c26 2c3f
000003a0: 4f05 7d3e e0fe 6dbf adea 6e3e 859e 56bf
000003b0: f29d 903f 6ceb 4bbe 2919 5a3e a31a 4f3f
000003c0: 18f7 083f 778e f83e 1d34 5e3e 863e cb3e
000003d0: c535 6f3e 4b3d 0fbf d899 1cbf 97b9 31bf
000003e0: c950 043f 6c54 ccbe 2763 483e 0e20 013f
000003f0: fd7c e83e 0fec a33e 2e66 043f ea76 113f
-0.32592237 0.16416408 0.119337015 -0.4441725 0.2886272 0.31775916 -0.035505757 -0.031831037
-0.2560054 0.24474214 -0.027473895 0.34382388 -0.18730046 0.082195446 -0.41631013 0.24284746
-0.37481734 -0.28639513 -0.82193464 -0.9058802 -0.49384272 -0.50648075 0.8359866 0.15698577
0.935276 -0.42402738 1.1449249 -0.86514163 -0.56774676 -0.67093116 0.6158263 -1.1069937
-0.0696772 0.028376086 -0.51285565 0.6761832 1.2107351 -0.5248401 -0.078087874 0.6644987
-0.2922819 0.37210667 -1.51692 0.3635491 0.004216587 -0.75940555 1.6008842 -0.9699563
0.3023028 -0.031467266 -0.25265878 -0.26175037 -0.4171042 0.12376125 -0.24019131 -0.11849029
0.26335558 0.2507367 0.4530297 -0.09485003 0.025472607 0.15962535 0.10934774 -0.37493813
0.45444635 0.20197698 -0.36905944 0.015300743 -0.17789245 0.13149774 -0.06661088 -0.0045316196
-0.12213765 0.298692 -0.3688384 0.055042006 -0.26825622 0.11999438 0.30829614 0.042769212
0.46634987 -0.75601375 0.1578626 0.50502014 0.043423507 -0.48559532 -0.064295344 -0.4669511
0.3916552 0.53283024 0.23765597 0.013689583 -0.43233034 -0.5512135 0.96076345 0.539868
0.5268032 0.10853378 -0.04087707 -0.1725113 -0.0423041 0.25174865 0.15598933 0.22286364
-0.3650249 -0.23647746 -0.034882847 -0.07311171 0.04535039 -0.10221516 0.07921904 -0.15941238
-0.43747324 -0.68227595 0.549354 -0.6314442 -0.46763536 0.36321005 -0.49323002 0.06334307
0.25208136 0.3006827 0.10918208 0.47929212 0.1710021 -0.51765984 -0.4516044 -0.04584866
-0.098967835 -0.5917837 -0.5274856 0.09350163 -0.093635805 -0.3879771 0.72543824 -0.6209594
0.5915186 0.20133331 -0.9123075 -0.3558903 0.0035040057 0.1515343 0.47834605 0.30849934
-0.22553101 -0.16020949 -0.029083733 0.19152087 0.047187466 -0.1338772 0.116167195 -0.19148098
-0.20300809 -0.276329 0.021970995 0.26183856 -0.080556184 -0.093875915 -0.047336467 0.104364805
-1.1676289 -0.42389348 1.2468364 0.5170434 1.003681 0.86246794 -0.47467616 0.04703219
-0.348951 1.4057184 0.103729516 -0.48832336 0.36836833 -0.051516593 0.41441527 1.2061568
-0.21286973 0.6554388 0.51139915 -0.9977744 0.11646849 -0.56092393 0.84948707 -0.47038552
-0.47532234 0.37538934 -0.90776885 -0.7468881 -0.3696537 0.8220645 -0.40876052 -0.08612123
0.013087545 0.50926185 0.5582882 0.22766057 0.32289988 0.5602993 -0.8755978 0.4448665
0.028606627 0.58193785 -0.5940992 0.5343165 0.6956892 -0.1089035 -0.6872897 -0.30009338
0.6321028 -1.226617 0.3483301 0.26550472 -1.8601005 -1.2491834 1.0226834 0.36051968
1.1731919 -0.14245923 0.4477806 0.80003715 2.2650654 -1.3780849 0.29911858 -0.64841425
-0.40293786 -0.33347 -0.36784077 -0.07735377 0.655048 0.5634711 0.941997 0.67245555
0.24709056 -0.92967033 0.23331709 -0.8383563 1.1298201 -0.19914025 0.2129866 0.8090002
0.53502035 0.48546192 0.21699567 0.3969614 0.23360355 -0.559529 -0.61172247 -0.6942381
0.5168577 -0.3990816 0.19569074 0.50439537 0.45407858 0.32016036 0.51718414 0.56822073

depthwise_1 f4 [1, 3, 3, 16]
00000000: bdb1 863e 8e22 9b3e ea20 89bc 5ab2 67bc
00000010: 52a0 813e f051 893e 72b9 9cbd 5ae4 913d
00000020: e6d7 2abe 5628 85bd da9a 1abe 523f 92bd
00000030: adb4 c13b 0f61 9f3e 704e 8f3e 6e60 0dbe
00000040: 8e66 353d 41db 1bbd 6b49 5fbe 3d83 2b3e
00000050: 7232 52be b214 c23c a17a 023e 1690 bd3d
00000060: 24d4 963b b7c2 77be 1534 04be 82c1 9a3e
00000070: f053 89bc 96d2 6abe 289b 98bd 8ac9 af3e
00000080: 5cec 4c3c 5b98 9e3e 2453 1cbe c8c2 683e
00000090: ecad 35be 5498 2ebe 7c31 873b 675e f73d
000000a0: fb18 9b3d 01df 0e3d b9c1 b13d dc27 0abe
000000b0: 373d 0d3e 7cac f6bc be04 66be 3a4b c93d
000000c0: c541 83be 7de6 2cbe 3bc7 9abd 1a4b 15bd
000000d0: b759 9d3e e506 3ebe bbfc 9bbe aa9f 973e
000000e0: 5d69 49be 1188 f13c e3a8 0fbe 1476 933d
000000f0: fd8c 20be cfc3 803e dbbc 76bd 146c 643d
00000100: cca1 9d3e 50c7 7e3e 4307 aabe 255f a8bd
00000110: c9fb 6a3e b809 9a3e d08b 863e 3420 87be
00000120: 47f8 54ba f76a 2a3c db01 883e 139e 863e
00000130: 3e95 053e 07f8 92bd 1903 3dbd 9b6b 8b3d
00000140: fac1 ad3c e9e4 a6bd bee8 7fbe 1d13 8bbe
00000150: 737d 573d 8f48 b73e f8d0 7d3e 1408 023e
00000160: c899 a4be 091a 8bbe 980b 42be f485 993e
00000170: d339 9bbe 7c50 9abe e617 15be 56aa 1ebc
00000180: 749a 03be 9b63 70be 7c71 0cbe be4d 42be
00000190: 7b98 6cbe 7d61 393e 4453 763d 760a 743e
000001a0: 1f11 a13e 0fd0 64be 4027 59be 41b1 583e
000001b0: 024a cc3d 91b3 de3d 5c43 e13d 094e 7fbe
000001c0: daa9 453d be60 a23d 6364 53be 16ef 43bd
000001d0: 2205 5f3d 9b69 4a3d 4ab2 893d 08f1 903e
000001e0: af43 b93d 46d7 56bd 76fc a03e d89f 2a3d
000001f0: 01cf b6be 6981 90be 9ee1 a43d 4db4 783e
00000200: e1f3 883d f1d5 37bd da6c bbbe f7c3 f3bd
00000210: 2211 1cbe 6bc5 8cbe cc20 21be eb6c c23d
00000220: 00d1 9fbd aaf5 04bd 07f1 acbd c06d 8c3e
00000230: 9165 153e 3b80 1d3e fd0f b23e aa1e 3abe
0.2630748 0.302998 -0.016739327 -0.014141643 0.25317627 0.26820326 -0.076525584 0.07123633
-0.16683921 -0.06501834 -0.15098134 -0.07140984 0.005911431 0.31128737 0.2798953 -0.13806316
0.044287257 -0.038050894 -0.2180535 0.16749282 -0.20527056 0.023691509 0.12742092 0.09255998
0.004602926 -0.24195372 -0.12910493 0.3022576 -0.016763657 -0.22931895 -0.07451469 0.3433345
0.012507524 0.30975613 -0.1526609 0.22730553 -0.17742127 -0.17050296 0.004125772 0.12078553
0.07573124 0.03488064 0.08679528 -0.13491768 0.13792883 -0.030111544 -0.22462747 0.098288015
-0.25636116 -0.168848 -0.075575314 -0.036448576 0.3073251 -0.18557318 -0.30466256 0.29614002
-0.19669099 0.029483827 -0.14029269 0.07200256 -0.15678783 0.2514939 -0.0602387 0.055767134
0.30787504 0.24880719 -0.33208665 -0.082212724 0.22947611 0.3008554 0.26278543 -0.26391757
-0.00081241544 0.010401479 0.26563916 0.26292476 0.13045213 -0.07176214 -0.046145532 0.068076335
0.02121066 -0.0814913 -0.24991128 -0.2716302 0.052609872 0.35797545 0.24786747 0.12698394
-0.32148576 -0.271683 -0.18949735 0.2998501 -0.30317554 -0.3013953 -0.14559898 -0.009684166
-0.12851888 -0.23475496 -0.13715166 -0.18974969 -0.23105042 0.18103595 0.060138002 0.23832116
0.31458375 -0.22344993 -0.21206379 0.21161367 0.09975053 0.10874093 0.10999176 -0.24932112
0.048257686 0.07928608 -0.20643763 -0.047835432 0.054448254 0.04941712 0.06723459 0.28308892
0.09046113 -0.052451394 0.31442612 0.041656345 -0.35704806 -0.28223732 0.080508456 0.2428753
0.06687141 -0.044881765 -0.36606485 -0.11902612 -0.1524091 -0.27494368 -0.15735167 0.09493431
-0.078035355 -0.032460846 -0.0844441 0.27427483 0.14589526 0.15380947 0.34777823 -0.1817576

convolution_3 f4 [16, 1, 1, 16]
00000000: 205f 32be 8b3a 3ebf b1a5 eb3d 78f0 abbe
00000010: c538 95be 5f65 acbd 3007 9bbf 99a7 e43e
00000020: 6295 273f 0801 053e 0e65 24be 5b29 0a3e
00000030: e3a0 953f 2753 97bf c9a8 2d3f 3404 fa3d
00000040: 7ec1 0f3e 1d6a b0be e5b7 0cbf 4a99 c23e
00000050: 4364 fe3d f3c2 af3e 9bb3 cdbe e7fe 98be
00000060: b1ce 2b3e 4bed 473e 08a5 17bf f218 ed3e
00000070: 07a3 ad3e 7c16 ed3e 0520 a23c 43c5 98be
00000080: 3c29 6c3e 1cef d2be 5707 d03e d4db b83c
00000090: 993e 2bbe d437 b0be c992 f23e 6a10 a8be
000000a0: 7128 833e 391d 883e a427 edbd 3814 9d3e
000000b0: 0bd3 12bf be19 d5be d89b 64bf ed0e 27bf
000000c0: 87f4 06be 3050 833f e060 07bf 7780 273f
000000d0: e31b d53f 4433 e1bc 4145 9a3f 7d22 2cbf
000000e0: d046 dc3f 5e79 23bf 4fd1 f2bf f67d 7dbf
000000f0: 8845 a33f 0e81 88bf fa18 01c0 83e5 1dbf
00000100: 27f3 89be 90db 933d 8dc9 df3e c99b fb3e
00000110: 0da7 543e fc4e aabc c14b 34bd c8c8 8a3e
00000120: 863e d13e f47c 833e 4bc6 dcbd 7121 c23e
00000130: bcb5 bcbc 40ac 7c3e b6e6 a93d 2948 f3bd
00000140: e999 ddbe bdd5 0fbe d9a2 d73e 4cd3 c23e
00000150: 20f5 c13e 28e1 f6bd 85b9 2e3e 0169 f5be
00000160: 5063 7d3e 166c bc3d 6a81 fe3d fca5 61be
00000170: fd69 8b3e 9a73 d2bc c912 0cbb 406b 8a3d
00000180: 84a3 c53e 3e64 163f ab4e ee3e 30f7 e43e
00000190: 0f58 743e 4970 1cbe 4278 093e 790c 0fbe
000001a0: e919 01be e423 033f 36ea ee3c 6029 d33e
000001b0: 90b1 0bbf ade2 843e 6aab 2abe e890 ecbe
000001c0: 12ba df3d e9f7 0bbf b3c3 173e e0ef 313f
000001d0: 335f 32bf 633f 4dbf 5911 763f acb3 e53e
000001e0: 39e2 62be 86b4 1f3f 52e9 a8be e27f 123f
000001f0: 6f2d 293f 773e 15bf 4e41 49bf c9b7 883f
00000200: 7caf 39be c64a cb3e a354 ae3e aa55 4bbf
00000210: e735 df3e 5bcb 6cbf 26c2 e43e d53f 2bbf
00000220: 199d 28bf 9f69 8a3c bd63 833e 29bb 1d3f
00000230: 6213 7e3f 9d9b a93f 6492 2bbf 3354 083f
00000240: 1808 34bf 72ae 863f a87c de3e a38f 793e
00000250: 5ce2 673f a791 9dbf 5c14 b73f 115f 85bf
00000260: 4f63 743f 0aec 763f 6916 e73f 2dab 463f
00000270: 9058 07bf c5c1 ebbb e1bf 6c3f 96c3 a73e
00000280: 7571 1bbf 97f0 dfbe 882b f23e da84 37bc
00000290: a661 2bbf 737b 933e ff49 1dbe 0681 c13c
000002a0: 1fe0 00be 2c6e 3d3e 714e 003f 3030 fcbe
000002b0: ea5a 98be 13c3 a1be 9728 15be 4309 29bf
000002c0: da8a 8cbd efb7 b13d 69f0 abbe 0d26 c7be
000002d0: ca3c 4d3e 27ca 353e 6c78 42be e643 bfbe
000002e0: 599d ed3c 9332 40be f726 593e ac53 b93e
000002f0: 0af2 c63d aa27 2b3e d63c 53be b571 a83e
00000300: 2d3b b4be 5bca 1cbf 16c4 e2bd e94d 763f
00000310: 238e 583f 2968 c9be 0130 a0be e340 433e
00000320: e75f 30bd cdb8 febc ab69 8cbc d94b cbbc
00000330: 0c87 dcbd 0086 8cbf 4575 39bf 7b69 88bf
00000340: d1a3 0e3c 4706 14be 2c85 06bf c28c c03e
00000350: b44d 443e 0df8 d93e 333e 2bbf c54e 54be
00000360: aecf b73e 27d8 3a3e f010 aebc c8d0 a1be
00000370: aa23 8abd 44c8 3dbe 90b4 2fbe 4744 74be
00000380: 132e 2340 6d9d d83f 51d9 483f b349 693e
00000390: ee67 303f 6fbf be3e 2495 993f 382d 04c0
000003a0: cc30 f7bf bfea 24c0 b986 33c0 c202 2e40
000003b0: 6748 65bf ab5d bc3f 3f39 dfbf ef5a b73c
000003c0: dec9 1fbc e7c1 eebd 0ca5 1f3f 23a7 803e
000003d0: a8dc dcbd 885d 4a3f f2dc ee3e 1133 833e
000003e0: 51ab 363f 1988 1dbf f410 2abf 7f6a 37bf
000003f0: ab0b da3e adc6 2dbc fd70 6e3f 4d36 47bf
-0.174191 -0.7430808 0.115062125 -0.335819 -0.29144874 -0.084177725 -1.2111568 0.44659117
0.65462315 0.12988675 -0.16054174 0.13492338 1.1689724 -1.1822251 0.6783567 0.12207833
0.14038655 -0.34455958 -0.549681 0.38007575 0.12421467 0.34328422 -0.4017609 -0.29881975
0.16778065 0.19524114 -0.5923619 0.46308094 0.33913442 0.46306217 0.019790659 -0.29838
0.23062605 -0.4119805 0.406306 0.02256576 -0.16723098 -0.34417593 0.47377613 -0.32825023
0.25616792 0.26584795 -0.115798265 0.30679488 -0.57353276 -0.41621202 -0.893003 -0.6525715
-0.13179217 1.0258846 -0.52882195 0.65430397 1.6649135 -0.027490266 1.2052385 -0.67240125
1.720911 -0.63857067 -1.8970126 -0.99020326 1.2755594 -1.0664384 -2.0171494 -0.6167833
-0.26943323 0.072196126 0.4370846 0.49142292 0.2076685 -0.020789616 -0.044017557 0.2710631
0.40868014 0.2568127 -0.10780009 0.3791614 -0.023035876 0.24675083 0.08295958 -0.11878998
-0.43281487 -0.14046378 0.4211643 0.38051832 0.37882328 -0.12054664 0.17062958 -0.47931674
0.24744916 0.09200303 0.124270275 -0.22035974 0.272293 -0.025689889 -0.0021373502 0.067587376
0.38601315 0.5874671 0.46544394 0.4471984 0.23861717 -0.15277208 0.13424781 -0.13969602
-0.1260754 0.5122664 0.029164415 0.41242504 -0.54567814 0.2595419 -0.16666952 -0.46204305
0.10924162 -0.54675156 0.14820747 0.69506645 -0.6967651 -0.80174845 0.9612022 0.4486364
-0.2215661 0.6238483 -0.3299051 0.57226384 0.6608495 -0.5829844 -0.7861527 1.0681087
-0.18133348 0.39705485 0.34048948 -0.7942759 0.43595812 -0.92497796 0.44679374 -0.66894275
-0.6586471 0.016896067 0.25662032 0.6161371 0.99248326 1.3250614 -0.6702025 0.5325348
-0.7032485 1.0521986 0.4345448 0.243712 0.9057977 -1.2310075 1.4303088 -1.0419637
0.9546403 0.9645392 1.8053714 0.77604944 -0.5286951 -0.00719473 0.92480284 0.32766408
-0.60719997 -0.43738243 0.47298837 -0.011201108 -0.66945875 0.28805122 -0.15360259 0.023621093
-0.12585495 0.18499058 0.5011969 -0.49255514 -0.29756862 -0.31594142 -0.14566265 -0.6602976
-0.06862421 0.08677661 -0.33581856 -0.38896218 0.2004272 0.17752896 -0.1899125 -0.3735649
0.029005693 -0.18769293 0.2120627 0.3619665 0.09714134 0.1671435 -0.20628676 0.32899252
-0.35201398 -0.6124627 -0.11072557 0.9621263 0.84591883 -0.3933728 -0.31286624 0.19067721
-0.04306021 -0.03109398 -0.01714023 -0.02481644 -0.10767946 -1.0978394 -0.72444564 -1.065719
0.008706049 -0.1445552 -0.52546954 0.3760739 0.19170266 0.4257206 -0.66891783 -0.20733173
0.35900635 0.18246518 -0.02124831 -0.316046 -0.06745084 -0.18533427 -0.17158723 -0.2385417
2.5496871 1.6923043 0.784566 0.2278202 0.68908584 0.37255427 1.1998639 -2.06526
-1.9311767 -2.5768278 -2.8050978 2.7189183 -0.895636 1.4716085 -1.7439345 0.022382228
-0.009752719 -0.11658078 0.62361217 0.25127515 -0.10784274 0.7904897 0.46652943 0.25624898
0.7135516 -0.61535794 -0.6643212 -0.71646875 0.42587027 -0.01060645 0.93141156 -0.7781723

depthwise_2 f4 [1, 3, 3, 16]
00000000: 0296 a33e 2245 d53d ca1a 03be 5bc4 023e
00000010: f8d5 543e 970c 863d 0c2a b23e 5d43 2bbe
00000020: 0023 86be acbd d13d 9363 8f3e 2502 fe3d
00000030: 19b9 a9be f9b4 b23e 104f 15bd 8b93 a83b
00000040: a8ce 89be f0fd 86be 377d 92bd ed5c c1be
00000050: 1005 493e dfbf 1fbe 52c3 933e fd05 1fbe
00000060: 5033 8dbe d0b7 9cbe 5c58 1a3e a343 81be
00000070: 472d 293e f2dc 43be 0fbb 2e3c 4841 a53d
00000080: dba5 2abd 3082 aebd c417 283e 2d81 95be
00000090: db63 f4bd 5fc7 233e 5bfa 943e 5fd8 18be
000000a0: 4d3e 253e 7a13 fd3d 4d97 98bd 54f0 94be
000000b0: 192f 94be 2a3f 3cbe 469a 0dbe 5427 893e
000000c0: b918 91bd 1dfe da3d 0695 38be d5e7 cdbd
000000d0: b8e0 25bd 712a 683e 3356 803e 7f9f ec3d
000000e0: 6e6d 99be 56b3 373e bf76 3abe 4a04 15bc
000000f0: 3a42 273d 97c9 083d 7d68 a6bd 8b69 523e
00000100: 5143 bebe 1956 bcbd 8faa 8dbe 4fc9 1b3e
00000110: 368b 88bd 69a2 fdbc 0dfe 843e b186 603d
00000120: 97ae 373e c809 053e 0a31 a73c f110 f3bd
00000130: e1e9 b33d b7d2 233d 05d4 843e 55ec 63bd
00000140: 5a73 713e 59cb a23e e4ae 77be 17ae 9fbd
00000150: d994 833e 143c 9cbe 6613 893e d668 acbe
00000160: af2d 6b3e 8077 693e aecb 1dbe f21f 9abd
00000170: 4df6 f33c 1ada 53bd 2e69 723e 0499 3abe
00000180: c225 91bd 5c34 82be 1173 83bd a194 6dbe
00000190: 2ed8 133e 1a74 593b 4c2d 7bbe ea9f 2c3e
000001a0: fed4 f1bc f94d bc3e 8a44 bf3e e945 453b
000001b0: d2eb b7be fd81 783e 2dd3 97be 8195 8b3e
000001c0: 0a42 213e 81a3 4bbe 0e3c b5be e86c 60be
000001d0: 86fa 843d e7a8 963e a8dc 8cbe 9c36 adbd
000001e0: 713d da3c 2e6b de3d 56ee 723d 20be aebe
000001f0: cba7 a93e f32e 0fbe 3a38 8abe 86e9 bebc
00000200: 0750 853d d84d 493e 944c 97be 843e 04be
00000210: 6528 3fbe 849c 9d3e 4ff6 35be 05b9 55be
00000220: e1ba c63d b303 4abe 9ccb 323e e186 b93d
00000230: dd2d 4e3e 788f ad3d 2e3b c93d a8fc 0e3d
0.31950384 0.10413577 -0.12803188 0.12770216 0.20784748 0.0654537 0.34797704 -0.16724916
-0.26198578 0.10241255 0.28005657 0.12402753 -0.3314903 0.34903696 -0.036452353 0.0051445416
-0.2691548 -0.26365614 -0.07152789 -0.3776621 0.19630837 -0.15600537 0.28859955 -0.15529628
-0.2757821 -0.30608988 0.15072769 -0.25246915 0.16521178 -0.19127253 0.010664715 0.08069092
-0.04166208 -0.08520925 0.16415316 -0.29200116 -0.119331084 0.15994023 0.29097256 -0.14926289
0.16137047 0.123572305 -0.07450733 -0.29089606 -0.28942183 -0.1838347 -0.13828382 0.26787817
-0.070847936 0.106929995 -0.18025598 -0.10053984 -0.04049751 0.2267244 0.25065765 0.11553859
-0.299663 0.17939505 -0.1820936 -0.009095261 0.040834643 0.033395376 -0.08125398 0.20548074
-0.37160733 -0.09196109 -0.27669188 0.15213512 -0.066671774 -0.030961232 0.25975075 0.05481595
0.17937694 0.12992013 0.020409126 -0.11868466 0.08784843 0.039995875 0.25943008 -0.055645306
0.2357916 0.31795767 -0.24187809 -0.07796877 0.256995 -0.30514586 0.26772612 -0.33673733
0.22966646 0.22799492 -0.15409729 -0.07525624 0.029780531 -0.05172167 0.23672935 -0.18222433
-0.0708728 -0.25430572 -0.064184316 -0.23201229 0.14437935 0.0033180774 -0.24528998 0.16857877
-0.029520508 0.36778238 0.3735698 0.0030101484 -0.35922104 0.24268337 -0.29653302 0.272625
0.15747848 -0.1988659 -0.3539738 -0.21916544 0.06493096 0.29425737 -0.27512097 -0.084576815
0.026640626 0.10860287 0.059309326 -0.3412943 0.33135828 -0.13982753 -0.26996022 -0.023304712
0.06509405 0.19658601 -0.29550612 -0.12914473 -0.18667753 0.30783474 -0.1776974 -0.2087136
0.09703613 -0.19727974 0.17460483 0.09058929 0.20134683 0.0847463 0.09825741 0.03490892

convolution_4 f4 [16, 1, 1, 16]
00000000: 7eee 5f3f 95af efbf 73a0 2340 18ed ff3d
00000010: e15a 1ac0 af6f 293f 8323 e3bf 133e e03f
00000020: cf5f 2740 0341 da3e a761 f13f 117d 1dbe
00000030: 2c3c 26c0 5043 9ebf e2c2 20bf 0a60 903f
00000040: 8902 9ebe d4d2 90be 210e 8cbb 0ef4 bfbe
00000050: 89de ca3e f5db c1bd 3cc6 e7bd b03e 87bd
00000060: 7dd8 c03e 8cae c5be bdfc fbbe eb68 98be
00000070: 31e9 bcbe 8dde 043e 2111 e9be 2b8f 353c
00000080: 094e 353f d1b7 073e c04d bd3e 14b2 6f3f
00000090: fdae 4b3f 71b8 d7be aa0f 7d3f 144b 2dbf
000000a0: 2a81 9dbe 9e1b 99bf 6d40 0cbe 1192 b8be
000000b0: ea4d fa3d d730 3a3e e36c 45bf 3cd0 b3be
000000c0: 35d4 b13d bf2b e33d 4ec1 92bf f3f0 633f
000000d0: 5736 a53f 98e3 ba3f 4470 babe d90e 96bf
000000e0: 0cff ccbf dd7e babf d039 aa3f c1d0 0abf
000000f0: cab3 af3f 5019 593f bcdb 94bf 8daf 1bbf
00000100: 7d8b 293e 72a1 1e3f e128 b1bd 2b34 d53e
00000110: 2f34 e5be a10f b93e 5a04 2b3f 0080 05bf
00000120: 0c4f e93c 6fca d23e 1103 05be 262c 603d
00000130: 2593 19bf c0f6 15bf 5442 453f cd06 5c3d
00000140: eb7d 1fbf 5030 9fbc 6579 bcbe f599 1dbf
00000150: 657e c73d 0228 c7be a99c 963e 237b 02bf
00000160: 7bb3 e9be 42c9 2cbf 1788 87bd bc11 b5bd
00000170: 9bf0 94bd cf92 d3bd f798 ffbd ef57 9cbe
00000180: 0b2c d8be 3950 9fbe 5b1d 14bf 36d8 bfbe
00000190: b486 cb3d 9295 76be 7cc3 0abd 15dd a3be
000001a0: 36c7 10bf fc93 4e3e aa28 a2be 690b dcbe
000001b0: 1bf0 2cbf 3c54 fabe fbfe a1bd 21d1 30bf
000001c0: bca4 1940 dcea 983d 0491 f33f a5ed 78bf
000001d0: 2272 313e a86f d6bf cb21 e8be adf1 913f
000001e0: 19ec d8bf f77b 193f 44f9 c33f 375b d53f
000001f0: bedd 963f c26a f23e 839b 553f 3a62 c63e
00000200: 4809 a0c0 b238 1cbf f511 e33e 98c9 58bf
00000210: fcb2 8740 62e6 453e c40d 8ebe f9e3 eb3f
00000220: 80b3 1dc0 8910 8740 0fe9 73c0 486b c33f
00000230: 9a02 3fc0 d308 b7bf c4c8 c93f 148e 2340
00000240: 60d6 8b3d 4ef1 e0bd d5fa dabe 5946 293f
00000250: a2e5 39bf 8bf6 8b3e 3b7d 6b3e ac38 82be
00000260: 27d7 debe 19c5 22bf a88b 8a3d 5718 cb3d
00000270: db02 20bf 527c 843e 2942 32be 529c c53d
00000280: 4467 f5bd 55ea 923c f806 013f 1dbd ed3e
00000290: bc07 373e 1719 ac3e 7741 4bbd 2c55 b6be
000002a0: 8d55 9a3d 5d51 663e f63d 123e eaef 973e
000002b0: 14fd e7be 6783 fdbd c0d2 d2be f244 cbbd
000002c0: 1fe9 a13e 3772 633e eff3 343e 6f04 bd3e
000002d0: cdc7 8dbe 7f64 3ebd 322c a73d 2d0e 0d3d
000002e0: d1e7 613e 7d43 853e c37a fc3d 68af 9e3e
000002f0: d95d 0cbe 153c a1be 277c 4cbe 00da bf3e
00000300: f918 f3be 634f b03d 2bb9 d1be 5da0 a8be
00000310: 6e14 173f 8551 3f3e b776 2abf 2dd7 b7be
00000320: 4a01 1fbf e647 d23e 51ab 163f be05 dbbe
00000330: e01b 99bd 4e2c bb3d d62b b4bc bcf4 8fbe
00000340: 61fd 85bd 8516 fb3e bc6c ca3c 9b25 55bf
00000350: c012 1a3f 6591 703e 3442 50be c39d 903e
00000360: c8d1 e7be 7046 d43e be99 d53e 1dd7 003e
00000370: 3dea 4ebf f2cd a93d c240 1b3f 76a4 6ebe
00000380: 1f7e c03e 3f32 933e 083e f23e 725e ef3e
00000390: 0163 67be 3d09 ea3e 2349 04bf 6b25 153f
000003a0: 1ff3 3d3f 28f0 1b3f d09d 7e3e a759 203e
000003b0: 4260 5f3e 5201 cbbe 8fbd d6be 4056 3f3f
000003c0: 7227 38bf 2737 b8bf b914 5dbf 2b20 9c3d
000003d0: 187a 263f 4364 d23f 606d a0be ab5a e63f
000003e0: ac8c 90bf cb01 9ebf b1b2 5cbe 55bf 343f
000003f0: 1666 b5be 873a fdbd 2f08 ce3f 047e 5bbe
0.87473285 -1.8725458 2.556668 0.12496394 -2.4117968 0.6618604 -1.7745212 1.7518944
2.6152227 0.42627725 1.8857926 -0.1537974 -2.5974226 -1.2364292 -0.6279737 1.1279309
-0.3086131 -0.2828585 -0.0042741452 -0.37490886 0.39622906 -0.094657816 -0.11317107 -0.066037536
0.37665167 -0.3860973 -0.49216262 -0.29767546 -0.3689666 0.12975521 -0.4552088 0.011081497
0.708222 0.13253714 0.3697338 0.936311 0.79563886 -0.42132905 0.98852026 -0.67692685
-0.30762607 -1.1961553 -0.13696451 -0.3604894 0.12221892 0.18182693 -0.7711927 -0.35119808
0.086830534 0.11092328 -1.1465242 0.89039534 1.2907208 1.4600706 -0.36413777 -1.1723281
-1.6015334 -1.4569966 1.3298893 -0.54224783 1.3726742 0.8480425 -1.1629558 -0.60814744
0.16557117 0.61965096 -0.08650375 0.41641364 -0.44766375 0.36144736 0.66803515 -0.5214844
0.028480075 0.4117007 -0.12989451 0.054729603 -0.5999015 -0.58579636 0.77054334 0.053717423
-0.6230151 -0.019432217 -0.36811367 -0.61563045 0.09740905 -0.3889771 0.29416397 -0.5096914
-0.45644745 -0.67494595 -0.06617754 -0.08841273 -0.07272454 -0.10330736 -0.124803476 -0.30535838
-0.42221102 -0.31115893 -0.5785729 -0.37469643 0.09937802 -0.24080494 -0.033877835 -0.3200461
-0.5655397 0.20173639 -0.3167165 -0.42977455 -0.6755387 -0.4889239 -0.07909962 -0.69069105
2.4006796 0.07466671 1.902863 -0.97237617 0.17328694 -1.6752825 -0.45338282 1.1401879
-1.6947051 0.5995478 1.5310445 1.6668462 1.178642 0.47347075 0.8344042 0.38746816
-5.001133 -0.6102401 0.44349638 -0.8468261 4.2405987 0.19326165 -0.27744877 1.8428947
-2.4640808 4.2207685 -3.8110998 1.5267115 -2.9845338 -1.4299568 1.5764394 2.5555468
0.06827998 -0.10983525 -0.42769495 0.66122967 -0.72616017 0.27336535 0.2299699 -0.25433862
-0.43523523 -0.63582 0.067649186 0.09916752 -0.6250436 0.258761 -0.1740805 0.09648956
-0.11982587 0.017934004 0.5040126 0.46433344 0.17874044 0.33612892 -0.04962298 -0.35611856
0.07535849 0.22491975 0.14281449 0.29675227 -0.4531027 -0.12378579 -0.41176414 -0.0992526
0.3162317 0.22211538 0.17671178 0.36917445 -0.27691498 -0.04648256 0.081627265 0.034437347
0.22061087 0.26028052 0.123281024 0.309932 -0.13707675 -0.3149115 -0.19969235 0.37471008
-0.4747999 0.08608892 -0.40961584 -0.32934847 0.5901555 0.18683441 -0.66587394 -0.35906354
-0.6211134 0.4107048 0.5885516 -0.42777818 -0.0747602 0.0913931 -0.021993559 -0.28116405
-0.06542469 0.4904062 0.024710052 -0.83260506 0.6018486 0.23492964 -0.20337754 0.28245363
-0.45277238 0.4145999 0.41718858 0.12582059 -0.8082617 0.08291234 0.6064569 -0.23304924
0.37596223 0.28749272 0.4731295 0.46751744 -0.2259636 0.45710173 -0.516741 0.5826022
0.741991 0.60913324 0.24864888 0.156592 0.21814063 -0.39649445 -0.41941497 0.7474098
-0.7193519 -1.4391831 -0.86359745 0.07623323 0.6503005 1.6436847 -0.31333447 1.799642
-1.129293 -1.2344297 -0.2155254 0.7060445 -0.35429448 -0.12364679 1.6096247 -0.2143479

depthwise_3 f4 [1, 3, 3, 16]
00000000: f8ee ac3d 0ce1 0cbe 4956 96be ae70 3bbe
00000010: 0e4c 86be 532d 973e 4278 70bd 73d8 033e
00000020: 254c 283e 9c05 bd3d 5d4a a3bd e4cb 883e
00000030: f745 833e ae41 7dbe 1cbc 59be 2d65 be3e
00000040: f8e3 983e 7024 9c3c 4fec ac3b e347 1fbe
00000050: bc5a 84be daf4 3d3e 9c37 b23e 9f43 9e3e
00000060: c32a 94be 54c5 a2be 21b6 723e e54e 193e
00000070: a29f c3bd b51e 3fbd d5ea b33e 8296 343e
00000080: f53c 70be d694 2d3e 7ec0 16be ca02 78be
00000090: 3d84 843e f452 24be a1b7 933d d04d 24be
000000a0: 49e8 0c3f 49c4 0a3c 4e56 2dbd 92ae d93d
000000b0: aaed 373e 9b54 9abd dccb d2bb ba7b 093d
000000c0: 00d3 a03e 015a 693d 4b35 883e f10a 34be
000000d0: 6bcd 6ebe 4d88 06be 362d a53e 92aa 03be
000000e0: f5d7 723d 0ab2 8bbe b64b fc3d 7209 bbbd
000000f0: 0b3e 1e3e 3e5c 373c 4a38 0bbe 45b7 4e3e
00000100: d7bc 5d3e 10ca a03d 9965 1c3e cf99 1dbe
00000110: a60b 1d3e 54ed 41bc 6081 15be 6a83 5a3e
00000120: 25ea b1be fe26 7dbc afaa a4be 170d a9be
00000130: 28d7 25bc 0a79 dcbd b74d 553e 9ff9 b13e
00000140: 7444 853e 086a 8c3e 211a 833e 20f9 223d
00000150: 9e11 51be 4433 20be d1f1 1cbe 3a2b 5f3d
00000160: 13da 73be b91c 113d 5661 c83d 6ae4 94be
00000170: 40af 8e3d 8f76 283e e2ed 22be a476 713d
00000180: 1b2c 80bd e2e9 c4bc dc93 98be 2776 a93e
00000190: f4f7 813d f72f 803d 9f30 3c3e 5bb6 913e
000001a0: e1e1 543e a8fd 16bd 67d0 aa3d 52e2 483e
000001b0: 98b8 88be 2c6d 0e3d 04f4 c5bd d541 9d3e
000001c0: fac8 8cbe 7658 ea3d e55b 8dbe ffe5 19be
000001d0: 3db4 acbb 54c8 5dbc e8a6 84bd 980f 743e
000001e0: 4330 153e 1ba6 4c3c c6f0 2e3e 15cc 31bd
000001f0: 9f44 643e 7562 ffbc 9616 b23e eeff a33e
00000200: 1aa8 9e3e cf63 f23c 04c0 4cbd 9d3f 5c3e
00000210: 11d9 efbd da4e 73be ec7d 623e b50f ab3e
00000220: cc2b 313e 1566 253d c890 40be 665f 1cbd
00000230: 3fb9 573e 8df1 16bd 5fdb 4b3e 6d2f d7bd
0.08444017 -0.13757724 -0.29362705 -0.18304703 -0.262299 0.29526767 -0.058708437 0.12875538
0.16435297 0.092295855 -0.07973168 0.26718056 0.25639316 -0.24732086 -0.21263164 0.37186566
0.29861426 0.019060344 0.0052771936 -0.15554766 -0.25850475 0.18550435 0.34808052 0.30910966
-0.28938875 -0.31791174 0.23702289 0.14971502 -0.09551932 -0.046660144 0.351401 0.17635539
-0.23460753 0.16951308 -0.14721867 -0.24219814 0.2588214 -0.16047269 0.07212759 -0.16045308
0.5504194 0.00846965 -0.042318635 0.10629 0.17961755 -0.075356685 -0.0064329933 0.03356526
0.3141098 0.0569706 0.2660316 -0.17582299 -0.23320548 -0.13137932 0.32261056 -0.12858036
0.059287984 -0.2728427 0.12319128 -0.09132661 0.15453355 0.011191426 -0.13595691 0.201871
0.21654068 0.0785104 0.15273131 -0.15390705 0.15336475 -0.011836369 -0.14600134 0.21339193
-0.3474895 -0.015451191 -0.3216147 -0.330178 -0.010122098 -0.10765274 0.20830427 0.34760758
0.26028788 0.27424645 0.25605872 0.039788365 -0.20416877 -0.15644556 -0.1532662 0.054484583
-0.23813657 0.035427783 0.0978419 -0.29080516 0.0696702 0.16451477 -0.15911058 0.058951035
-0.062584125 -0.024037305 -0.29800308 0.33097956 0.063461214 0.062591486 0.18377922 0.2845944
0.20789291 -0.036863 0.08340531 0.19617584 -0.26703334 0.034772083 -0.09665683 0.30714288
-0.27497083 0.11442654 -0.27609172 -0.15029143 -0.0052705095 -0.0135365315 -0.06477147 0.23834074
0.14569192 0.0124907745 0.17084035 -0.04340752 0.22291802 -0.031174878 0.34782857 0.32031196
0.30987626 0.029588608 -0.049987808 0.21508642 -0.11711324 -0.23760548 0.22118348 0.3341042
0.17301863 0.040380556 -0.1880523 -0.038176917 0.2106676 -0.036851455 0.19907902 -0.105070926

convolution_5 f4 [3, 1, 1, 16]
00000000: e06c 9c3e 670a 15bf c115 40c0 b4c2 0dbf
00000010: c579 7cc0 4b28 62c0 f5d1 e93f 8178 343f
00000020: 7517 b841 978c e840 e3f7 7840 d7b3 e8c0
00000030: 3da0 a3c0 c8b8 a4c0 26b8 8940 a071 8dbf
00000040: 1736 91bf 8321 823f 4164 dc3f 09a3 993c
00000050: b847 2740 c309 a8be 0414 1340 77c3 12c0
00000060: a34c 77bf 4375 fdbe 5775 b9bf 07f8 0ac0
00000070: ef2a 07c0 4c8c ae3f d0ee 0f40 a53a 9340
00000080: e0f4 24bf 1346 6e3f 34cc 853f 933d 1b3e
00000090: add0 c9be a609 8a3f 4246 e33f 2a89 d4bf
000000a0: 97dc 68bf e924 023f 1d0a f73e 1f63 5dbf
000000b0: 9594 4abf 3a4a 3c3f abcf 8dbf 35cd a3be
0.30551815 -0.58219 -3.0013278 -0.5537522 -3.9449322 -3.5337093 1.8267199 0.70496374
23.011454 7.267162 3.8901298 -7.271953 -5.1133103 -5.1475563 4.303729 -1.1050301
-1.1344632 1.0166477 1.7218095 0.018754499 2.6137524 -0.32819948 2.2980967 -2.2931802
-0.96601313 -0.49503526 -1.4488934 -2.1713884 -2.1119955 1.3636565 2.248951 4.6009088
-0.6443615 0.93075675 1.0452943 0.15160207 -0.3941702 1.0784194 1.7755816 -1.6604359
-0.90961593 0.5083757 0.48249903 -0.8647937 -0.7913297 0.7355076 -1.1079 -0.31992498
